model/setconv_model1.pth (torch, 539924 bytes, 7 tensors)

predicate_mlp1.weight f4 [256, 8]
000000 d6 1d 52 3e 12 d5 1b bd f7 08 62 be c0 4d 07 3e
       0.20519194 -0.038044997 -0.22073732 0.13213253
000010 13 0a fc 3d f0 87 15 be 07 b3 87 bc a5 96 80 be
       0.12306609 -0.14602637 -0.01656486 -0.25114933
000020 28 f2 95 3c 12 f7 ee 3d c3 84 9c be fe 66 50 be
       0.018303946 0.11668219 -0.3057004 -0.20351788
000030 57 bf 6f 3e 37 99 43 bd e0 58 c3 bd dd 29 1e be
       0.23412834 -0.04775354 -0.09538436 -0.15445657
000040 64 7d 3f bd bc ec a5 bc b0 37 a6 be a2 4d 7d 3e
       -0.04675044 -0.020254485 -0.3246436 0.24736646
000050 cd ee 30 be ad e4 a7 3d f4 5f d8 3d 3c 5e 81 be
       -0.17278595 0.08197913 0.105651766 -0.25267208
000060 38 1f a9 3d 48 6a 60 be ec 6d 74 3d 8e 7f 4e be
       0.08257908 -0.21915543 0.059675142 -0.20165846
000070 dd 77 b8 bd a3 5f 0b 3c 5a 8c 99 3d 17 c4 5d be
       -0.09007237 0.008506688 0.07497473 -0.21656834
000080 f2 bf a3 3e 8b 66 05 3e f0 23 29 bd 3f 87 4e be
       0.3198238 0.13027398 -0.04129404 -0.2016878
000090 4d 38 b1 3e 86 e9 95 be 10 ea c1 bc cf 8f 8e be
       0.34613267 -0.29279727 -0.02367118 -0.27844092
0000a0 79 4e e1 3d 89 c8 a5 3d 00 10 3f be 00 45 9d bd
       0.110012956 0.0809489 -0.18658447 -0.07679176
0000b0 5c e3 61 bd fb bd a7 be 83 7d 04 3d 66 be cc bd
       -0.055148467 -0.3276213 0.03234626 -0.09997253
0000c0 2e df 76 3e 31 d1 a8 be 92 99 8b 3e bc ab d9 bd
       0.24108574 -0.329721 0.27265602 -0.10628459
0000d0 de eb 89 3e d0 6d fb 3d ef e4 1d be 43 89 17 be
       0.26937765 0.122768044 -0.15419362 -0.14798455
0000e0 76 4f 88 be c4 65 6c be b3 e5 9c 3e f6 dd a2 be
       -0.26623124 -0.23085696 0.30643997 -0.31809968
0000f0 93 fe 84 3e 64 7e ab 3a d4 06 d7 bd 93 a7 87 3e
       0.25975475 0.0013083932 -0.10499349 0.26495036
000100 0e 0e e0 3d 11 db 60 3e 18 8a 7c bd 79 3f b0 3d
       0.10940181 0.21958567 -0.061655134 0.086058564
000110 89 bc b0 be 5a 21 56 be e3 73 d2 bd 82 3c 0e 3e
       -0.3451884 -0.2091116 -0.1027601 0.1389027
000120 40 95 a7 3d 04 49 fc 3d f3 9e 58 3e ea f0 4c be
       0.08182764 0.12318614 0.21154384 -0.20013776
000130 a8 7e 38 be c0 39 b2 3d 92 7a 44 be c6 74 3e be
       -0.18017066 0.08702421 -0.19187382 -0.18599233
000140 4f bc 33 be 94 f9 b0 3d fc 80 d9 3d 50 8d e2 3d
       -0.17552303 0.08641353 0.10620305 0.110621095
000150 f8 24 53 3e 8c c4 04 be 90 e4 cd bd 02 3d bd be
       0.20619571 -0.12965602 -0.100533605 -0.36960608
000160 c1 2c 21 bd 31 94 1f 3e 72 14 36 be 20 a2 fe 3c
       -0.03934932 0.15583874 -0.17781237 0.031083167
000170 2c f1 87 3e 89 84 55 be b6 51 35 bd 6e d1 f5 3d
       0.26551187 -0.2085134 -0.04426738 0.12002836
000180 79 43 90 be f7 b9 79 be a8 54 2e bd d7 2a 97 3e
       -0.28176478 -0.24387346 -0.042561203 0.29524872
000190 06 2f 0d be 64 df 31 be d8 df 43 3d d7 9c a0 be
       -0.1378747 -0.17370373 0.047820896 -0.3136966
0001a0 72 2b 4a 3e 50 98 2b be 15 cf 22 bd 64 19 76 3d
       0.19743136 -0.16757321 -0.03974827 0.060082808
0001b0 50 ac 47 bc 07 36 a3 3e 65 0f 4e be 22 7e e6 bc
       -0.012187079 0.31877157 -0.2012306 -0.028136317
0001c0 7d ca 01 3e 03 17 99 be b1 04 c9 3d 83 c2 d6 3b
       0.126749 -0.2990037 0.09815348 0.0065539493
0001d0 22 c3 3a 3d ee 20 14 bc 3f 64 e6 3d bb f0 df bd
       0.04559625 -0.009041054 0.11249589 -0.109345876
0001e0 f0 57 3b 3e c4 46 20 be be 0b ab 3e f2 43 a6 bc
       0.18295264 -0.15651995 0.33407396 -0.02029607
0001f0 2e 43 ac be 7f 59 aa bd 06 9c a5 bd fb 6a dc 3c
       -0.33645004 -0.08317851 -0.080864 0.026906481
000200 70 cf ae 3e 8d 2c 41 3e c8 e4 bc 3e 8a ec dd bd
       0.34142637 0.18864651 0.36893296 -0.10836132
000210 ff b8 2a 3b c8 14 44 be 00 55 e9 bd e4 82 ac be
       0.0026050208 -0.19148552 -0.113931656 -0.33693612
000220 fb 0c 6e be ab 9e a5 be 99 9f 8f be 27 9c 90 3e
       -0.23247139 -0.32347617 -0.2805145 0.28244135
000230 31 75 9e be 5e ca a7 3e ec d8 9e bd ce 6f 10 be
       -0.30948785 0.3277158 -0.07756218 -0.1410515
000240 b4 7c 52 3e 33 51 2d 3e 40 46 bd bd 0a 8c b4 be
       0.20555383 0.16925506 -0.09241915 -0.3526309
000250 36 f5 bb 3e 9a ff 97 be 00 3d ca ba eb 42 6f be
       0.3671052 -0.29687196 -0.0015429556 -0.23365371
000260 78 b2 85 be 41 a0 0f 3d 3b b1 42 3e 23 5d 2c be
       -0.26112723 0.03506494 0.1901292 -0.16832404
000270 c3 e7 a4 bd bf 87 ea bc ca 8d c6 ba df 7f a5 3e
       -0.080520175 -0.028629182 -0.0015148458 0.3232412
000280 f3 ec 11 3e 1c b7 dd bd fe a5 aa bd 36 d4 a8 be
       0.14250545 -0.10825941 -0.08332442 -0.32974404
000290 f8 bf 3b 3e 90 d4 28 3e fc 77 9b be a2 03 0b c0
       0.18334949 0.16487336 -0.30364978 -2.1720967
0002a0 eb 72 4a 3e 38 bf fb bd 80 3e 84 bd f5 4b 0a bd
       0.197704 -0.122923315 -0.064572334 -0.033763845
0002b0 41 91 7c 3e 05 2f 4c bd 56 99 67 3d 71 e5 ad be
       0.24664785 -0.04984953 0.056542717 -0.33964112
0002c0 ec f4 a0 3e 46 30 72 be 63 9c b3 be 5a 13 16 bc
       0.3143686 -0.23651227 -0.3508025 -0.009159887
0002d0 c9 c4 2b bc 1a c7 fa 3d 33 7b a6 3d fb e1 cf bd
       -0.010483929 0.12245007 0.08128967 -0.10150524
0002e0 50 f4 92 3d 66 e6 2b 3e 7e 03 a8 be 44 cc cb bd
       0.07175505 0.16787109 -0.32815164 -0.0995107
0002f0 a0 d6 d9 bc e0 cc 8e 3c 5c 77 72 be 0e 4e 29 be
       -0.026591599 0.017431676 -0.23678344 -0.16533682
000300 ca f3 11 3e bb 88 80 bb 52 05 4b 3e fd a7 5c be
       0.14253154 -0.0039225495 0.19826248 -0.21548457
000310 01 00 7b 3e ac 43 85 be 44 44 86 be 49 17 8e be
       0.2451172 -0.26028192 -0.26223958 -0.2775214
000320 00 7e 2f 3c b1 00 60 be dc 63 45 3e 48 ef 9e 3c
       0.010711193 -0.21875264 0.19276375 0.019401208
000330 10 e2 e0 3d 22 a0 9e 3e 08 aa 83 bd 36 15 9c be
       0.10980618 0.30981547 -0.06428915 -0.30484933
000340 4a 2d be be 00 7b b0 be 4a 11 a2 be 27 82 83 3d
       -0.37143928 -0.34468842 -0.31653816 0.06421309
000350 6d 16 13 3e a3 de 7e bd de 87 9b be 54 51 3c 3e
       0.14364024 -0.06222404 -0.30377096 0.18390399
000360 2a c9 13 3e ef bd 7f be ca 92 0c 3e b8 08 0d 3e
       0.14432207 -0.24974798 0.1372787 0.13772857
000370 a9 45 13 3e 22 c5 ab 3e 06 8e fc bc b2 1d 9f be
       0.14382042 0.33548838 -0.03082944 -0.31077343
000380 70 ea bf 3d 12 ce 4d 3e 1a 0c 85 be 38 f8 ed bd
       0.09370887 0.20098141 -0.25985795 -0.116196096
000390 96 95 9e 3d d3 c9 86 3e 89 67 9f be a1 7b 85 be
       0.07743375 0.26325855 -0.3113368 -0.26070884
0003a0 0a 33 24 3e 6d cf 9a 3d d8 eb a0 3e d9 2d af be
       0.16035095 0.075590946 0.31429935 -0.34214666
0003b0 14 f8 44 be ce e0 ff 3b 90 fe 17 be 03 a4 83 bc
       -0.1923526 0.007808781 -0.14843202 -0.016069418
0003c0 36 7d 6e be e6 ce 9d be 07 bb af 3e f3 52 14 be
       -0.23289952 -0.30821913 0.34322378 -0.14484768
0003d0 1a 55 27 be 3b 3f a5 be 48 e4 12 3d 3e 4e 08 3e
       -0.16341057 -0.32274804 0.035862237 0.13311097
0003e0 6e 60 3e be e7 22 48 be 98 6b cf be 57 dd f5 bd
       -0.18591473 -0.19544564 -0.40511775 -0.12005108
0003f0 64 b3 a4 be 3f 43 9b 3e e0 42 11 3c e3 bc 90 3e
       -0.32168114 0.30324742 0.008866042 0.2826911

predicate_mlp1.bias f4 [256]
000000 f7 ce 75 3d 5a 74 90 3e 86 56 43 3e a9 37 79 3d
       0.06001183 0.2821377 0.19075975 0.060844097
000010 d2 d7 9c be 0f ad 00 3e 87 07 98 3d bb c0 9a be
       -0.30633408 0.12566017 0.07423311 -0.30225167
000020 01 c7 f3 3d c4 c2 f3 bd 4e f1 88 bd d9 57 73 bc
       0.11903191 -0.11902383 -0.0668665 -0.0148524875
000030 32 6b b1 be 4d ad 55 3e 0f 39 f0 bb 60 92 ad 3e
       -0.34652096 0.2086689 -0.0073310207 0.33900738
000040 75 2b bd 3d df 03 11 3e 75 98 85 be 76 26 f8 bd
       0.092368044 0.14161633 -0.26092878 -0.12116711
000050 6e 5b 06 3e 7a c0 95 3d e8 99 ab 3d be 1f 0d be
       0.13120815 0.073121026 0.08378965 -0.1378164
000060 35 be 96 bd 82 8c 9a be 4d 9c 40 3e 10 fe e6 3d
       -0.07360498 -0.30185324 0.18809624 0.11278927
000070 9d fb 13 3e 46 eb de 3d 26 53 7d be ff 9c 3d be
       0.14451452 0.108847186 -0.2473875 -0.1851692
000080 4c c0 74 be 4a 79 e1 3d ab 26 23 be 3d f9 90 3c
       -0.2390148 0.11009462 -0.1593272 0.017696971
000090 03 7e 13 3e eb 7c f7 bc 07 78 19 be 60 61 2a bc
       0.14403538 -0.030210933 -0.14987193 -0.010399193
0000a0 a7 12 e5 bd 42 1d 62 be 49 af 95 3d 96 5a 14 3e
       -0.11185198 -0.22081473 0.073088236 0.14487681
0000b0 b9 b4 af bd 3a fd 43 bc 30 1b 8e be 5b 89 92 3e
       -0.08579392 -0.011962229 -0.27755117 0.2862042
0000c0 54 a4 4b be 61 d9 98 bd 90 e1 fc 3d 9d 2d 74 3e
       -0.19886905 -0.07463337 0.1234771 0.23845525
0000d0 20 e2 12 3e 96 d3 14 be 2c 12 84 be 7b ba 41 3c
       0.14344072 -0.14533839 -0.25795114 0.011824246
0000e0 6b c7 2f 3e 58 51 6d bd d5 a6 88 bb 82 53 30 be
       0.17165916 -0.057938904 -0.0041702786 -0.17219356
0000f0 2b 10 f6 bd 09 97 85 3d 22 9c 8f be 17 bb 80 be
       -0.120148025 0.06522948 -0.28048807 -0.25142738
000100 34 03 5c be 58 10 73 3c ec 63 b8 bd 8a 5e 6c 3e
       -0.21485597 0.01483544 -0.090034336 0.23082939
000110 0a 46 f9 bd 01 77 52 be e2 6f 38 3d c9 28 97 3e
       -0.12171562 -0.20553209 0.045028575 0.29523304
000120 fa 2e 99 3e 89 15 14 3e 7d f5 22 bd 9e 1d d2 bd
       0.29918653 0.1446134 -0.039784897 -0.10259555
000130 13 11 00 3d 02 c4 a2 3e db 8a 93 3d 4a b7 62 be
       0.031266283 0.31790167 0.07204219 -0.22140232
000140 d2 8f 5d be 84 5e e0 3d 8d a5 35 be 55 8d 69 be
       -0.21636894 0.109555274 -0.17738934 -0.2280782
000150 26 fe c6 bd 5b 2e c0 bd 64 f2 8c be 16 75 d0 3d
       -0.09716444 -0.093838416 -0.2752868 0.10178582
000160 60 8e 28 3e fe 65 cd 3c 60 c7 9d bd 86 6b 4f 3e
       0.16460562 0.025073048 -0.077040434 0.2025586
000170 3b 42 99 3e 39 fb 9b bd b1 b4 e1 3d b0 15 23 be
       0.29933342 -0.07616276 0.11020792 -0.15926242
000180 fe b0 cb bc 87 87 9e be 4c c3 97 3d fc 6e 5d 3d
       -0.02486467 -0.30962774 0.07410297 0.05406092
000190 85 6c 67 be 15 3e 8c 3e 15 81 25 be 75 c4 8a 3c
       -0.2259999 0.27391115 -0.16162522 0.016939381
0001a0 c5 ca 46 3e 29 b3 ae 3c ee 96 4d be 13 93 5a 3e
       0.19413288 0.021325665 -0.20077106 0.21345167
0001b0 21 3c 9b 3e 19 a7 d1 3d c4 49 80 3e 7c 6d 85 be
       0.30319312 0.102369495 0.2505628 -0.26060092
0001c0 9b c7 29 3d 5e b9 42 3c 2c d1 9e bd 72 70 76 3e
       0.041450124 0.011885015 -0.0775474 0.24066332
0001d0 08 b8 44 3e 07 c5 d0 3c 8a ed e1 bb 9d 00 00 3e
       0.19210827 0.025484575 -0.006894772 0.12500234
0001e0 be 52 3a 3c f2 da 86 3e 45 96 23 3e 9c 83 e1 bb
       0.011372266 0.26338917 0.15975292 -0.006882144
0001f0 83 92 0f 3d a3 0e a6 be 8c 00 b1 bc 18 da ad 3d
       0.035051834 -0.32433042 -0.021606706 0.08488864
000200 01 54 97 3d 8f 48 08 be a3 6b 1f 3e 3b 6a 3c bd
       0.07389069 -0.13308929 0.15568404 -0.045999747
000210 8d 03 af be 4b da 45 3e ca c4 6d 3e 4e e2 4e bc
       -0.34182397 0.19321553 0.232196 -0.012627197
000220 a0 1c a4 be 45 81 8d 3e 72 5f 33 bd ea c8 bd be
       -0.3205309 0.27637687 -0.043792196 -0.37067348
000230 1c 83 70 3e 09 86 79 3b 14 07 cf bd 4f 69 57 be
       0.23487514 0.0038074276 -0.10108772 -0.21036266
000240 1e e4 9b bd e0 33 88 3d 49 60 a7 be 41 33 49 3e
       -0.07611869 0.06650519 -0.32690647 0.19648458
000250 98 96 be bd f4 9d 43 3e 4c d5 07 3e c3 da 77 3e
       -0.09306067 0.19103223 0.1326496 0.24204545
000260 15 e8 ca bd c6 32 df 3d 14 67 af 3e 88 ad 2d 3e
       -0.099075474 0.10898356 0.3425833 0.16960728
000270 b6 4e 09 be 3d a7 54 be d1 07 66 3e f6 34 18 be
       -0.13408932 -0.20766921 0.22463919 -0.14863953
000280 97 15 86 bc 70 a6 2d be f1 86 9c bd 43 56 37 be
       -0.016367717 -0.16958022 -0.076429255 -0.17904
000290 39 51 a1 3d 23 95 f1 3c 40 7c 36 bd 9f c7 3a 3e
       0.0787682 0.02949006 -0.044552088 0.18240212
0002a0 2a 09 b0 3e f1 9f 9e be c0 62 99 bd f5 60 09 3e
       0.34381992 -0.309814 -0.07489538 0.13415892
0002b0 3c c7 7e bd 31 bb 58 bd 1e ef be 3d 9a cd 62 3e
       -0.062201723 -0.052912895 0.09322952 0.22148743
0002c0 5f fd 2d 3e f0 64 97 3e 6b 47 48 bb 69 df c2 3c
       0.16991185 0.29569197 -0.0030560147 0.02378817
0002d0 a7 e7 30 3d 22 10 ac be 61 c6 8d 3e 72 c6 ad bd
       0.04318967 -0.33606058 0.27690414 -0.08485116
0002e0 fc e3 a1 bd a2 d4 08 3e 31 df a3 3e 20 26 87 3e
       -0.07904813 0.13362363 0.3200622 0.26396275
0002f0 93 42 e4 3d d3 ca dc bd e3 26 57 3e 97 7d cf bd
       0.111455105 -0.10780873 0.21010928 -0.10131376
000300 89 ef 83 3e e7 03 88 3e 3b e9 c5 bd b5 d1 97 3d
       0.25768688 0.26565477 -0.09663626 0.07413045
000310 23 4e b3 be 99 9a 96 be 88 a0 74 be b2 88 a1 be
       -0.3502055 -0.29414824 -0.23889363 -0.31549603
000320 85 e9 73 be 67 3f ac be cd c0 50 3e f4 51 3b 3e
       -0.2381955 -0.33642122 0.20386048 0.18292981
000330 81 96 6e be c2 b9 6e 3d 32 20 5f 3d 24 52 8d be
       -0.232996 0.05828262 0.054474063 -0.2760173
000340 16 b4 2d be 81 47 a2 bc be ef 04 be ba cc 4a 3d
       -0.16963229 -0.019809486 -0.1298208 0.04951165
000350 12 75 77 3e 2c 95 bf bd 69 99 92 3e 36 52 3c be
       0.24165753 -0.09354624 0.28632668 -0.18390736
000360 7c 39 a4 be d1 cb 01 be f0 c0 c4 bd b2 b1 92 be
       -0.32075107 -0.12675406 -0.096071124 -0.28651196
000370 21 17 b2 be 11 e3 c4 bc d5 90 46 3b d4 17 ae 3e
       -0.3478327 -0.024034055 0.003029873 0.34002554
000380 f1 d8 23 bc 76 9e b4 bd df f9 a7 3c ff 10 80 be
       -0.010000453 -0.088192865 0.02050489 -0.25012967
000390 18 bf a0 3e 03 3a 98 3d ac 66 aa bd 5b 52 b3 be
       0.31395793 0.0743294 -0.08320364 -0.3502377
0003a0 6e 0d 66 bd 50 e7 57 3e 44 e0 94 bd e5 01 3b be
       -0.05616515 0.21084332 -0.07269338 -0.18262441
0003b0 44 b5 0f 3e 9c 07 1e 3d 42 b2 e7 3d 9d da 63 3e
       0.14033991 0.038581476 0.11313297 0.22251363
0003c0 59 6c 67 be 79 ea 8c 3e 29 df 16 3c 40 90 11 be
       -0.22599925 0.27522638 0.009208479 -0.14215183
0003d0 37 aa a9 be 6b 2d 13 be 66 8b af bd 5d 22 3b 3e
       -0.33137676 -0.14372794 -0.0857151 0.18274827
0003e0 76 5a a7 3e 7e 2f 8b 3e 64 dc 81 be 84 f0 74 3e
       0.32686204 0.2718467 -0.25363457 0.23919874
0003f0 11 bc 40 be 0c ee 52 3d 94 44 6a 3b 06 a8 a6 bc
       -0.18821742 0.05149655 0.0035746442 -0.020343792

predicate_mlp2.weight f4 [256, 256]
000000 7a a0 0a bd d7 84 e5 3c 58 07 81 bd 78 7c 35 3d
       -0.03384445 0.028017445 -0.06300229 0.044308156
000010 2b cd f3 bd 35 cc 08 bd 35 cc df bc 6c ef f4 3b
       -0.11904367 -0.033397872 -0.027319053 0.0074748304
000020 80 ee e9 bc 09 e5 ca bc ce 10 ce bc 44 12 8f bd
       -0.028556108 -0.024767416 -0.025154497 -0.06985906
000030 c0 f8 9c 3c 2f d0 e5 3b 01 31 5b bd ef ec 6e 3d
       0.019161582 0.007013343 -0.05351353 0.058331426
000040 2b 09 67 bd db 82 12 3d 09 7a 3d bd f1 81 0a bc
       -0.056405228 0.035769325 -0.04625896 -0.008453832
000050 14 33 c4 bc 84 92 cb bd d6 af 62 bd ac d7 f8 bc
       -0.023950137 -0.09940055 -0.05534347 -0.030376278
000060 dc 06 b8 bd 51 e8 21 3c 35 2d b8 bc ea f6 ba 37
       -0.08985683 0.009882049 -0.022482494 2.2287906e-05
000070 18 01 39 3c 50 d1 67 bd dc b3 d2 3c 0f bd 37 3c
       0.011291765 -0.0565961 0.02572053 0.011214509
000080 2a 20 ec bc 06 9d 45 bd d9 7d 08 3c dd ad 88 bd
       -0.02882393 -0.048245452 0.008330786 -0.06673787
000090 30 ff d6 bc a2 91 aa bd 56 6c b4 3c 58 e5 05 bd
       -0.02624473 -0.083285585 0.022024315 -0.032689422
0000a0 9d b2 26 bd 35 ff f1 3c b6 5c 55 3d fb b5 b1 bc
       -0.040697683 0.029540638 0.05209037 -0.02169322
0000b0 3f f1 37 bd 51 2f 11 3d 22 57 78 ba da 80 e1 bc
       -0.044907805 0.035445515 -0.0009473433 -0.027527262
0000c0 f1 fe b7 bc fc 74 6d 3d a3 01 c1 3c 3c 64 3b bd
       -0.022460433 0.057972893 0.02356035 -0.045749888
0000d0 3d a2 5c bd df 17 d7 3c 84 f1 f5 3c ec d9 eb bc
       -0.05386566 0.0262565 0.03002239 -0.028790437
0000e0 67 2a 28 bd a8 49 4a bd de f9 15 3d a8 e4 41 bd
       -0.041056063 -0.04938665 0.036615245 -0.047337204
0000f0 68 56 64 bd 9a 41 6d 3d ad f2 d7 3a 95 c9 89 be
       -0.055746466 0.05792389 0.0016475521 -0.26911607
000100 b3 58 99 3d b2 5a d7 bb e5 8f 3b 3d 4c 4b 22 bd
       0.07487621 -0.006572091 0.045791525 -0.03962259
000110 91 8d 1c 3d a8 64 30 bd 22 e4 82 3c ad 74 30 3d
       0.038220946 -0.043064743 0.015977923 0.04308002
000120 84 17 cc 3b 98 2d bc bb eb 35 d5 3b ab 50 c4 3b
       0.006228389 -0.00574274 0.0065066717 0.0059910617
000130 81 4e 77 bd b4 48 9c bc b8 69 58 bd a2 7f b8 bd
       -0.0603776 -0.019077636 -0.052835196 -0.09008719
000140 97 84 18 3d e4 fb 3b bd 2f 58 3b 3d 95 e9 77 bd
       0.037235823 -0.04589452 0.045738395 -0.060525496
000150 85 9b 10 bd 37 12 62 3d de 63 77 3d 80 1c 8a bd
       -0.035304565 0.055193152 0.060397975 -0.06743717
000160 81 af 1d bd fa f1 44 bc 2e 4d 9d bc 3b 99 47 bd
       -0.03849745 -0.012020582 -0.019201841 -0.048730116
000170 6f 4c 9b b8 e4 c5 52 bd ee e7 6e 3d eb 63 40 3d
       -7.405213e-05 -0.051458254 0.058326654 0.04697029
000180 a7 a6 5e 3b 0c 5e 33 bd e8 65 17 3d 73 13 85 3d
       0.0033973844 -0.043790862 0.03696242 0.0649785
000190 4e 35 f3 bd e5 29 1f bc 7a 06 20 bd f5 8d 13 3c
       -0.118754014 -0.009714578 -0.039068677 0.009006013
0001a0 43 09 37 bc 7b 2f e9 3c 8f df de 3b 75 55 2d 3d
       -0.011171642 0.028465023 0.0068015526 0.042317826
0001b0 65 35 48 bd b5 08 43 3c 4e f6 a5 bd c4 00 1e 3d
       -0.048879046 0.011903931 -0.081036195 0.03857495
0001c0 9c b2 28 bd f7 1f a0 3c 38 f6 95 3d e7 29 1e 3d
       -0.04118596 0.019546492 0.07322353 0.03861418
0001d0 4b 11 4b 3d d9 41 fe bd 3c b3 d3 bb e3 43 38 3d
       0.04957704 -0.12414903 -0.0064605754 0.044986617
0001e0 e2 81 82 3c 65 10 4a 3d a8 8a 5a 3d e0 19 c2 bc
       0.015931074 0.04933204 0.05335489 -0.023693979
0001f0 82 c8 9f 3d 06 0e 76 bc ef b0 52 3d 3f 9f fd bc
       0.07801916 -0.015017992 0.05143827 -0.030959724
000200 40 55 1a bd cc 3a ed bc cd 59 fd 3c 3a eb c9 3c
       -0.037678957 -0.0289587 0.03092661 0.024648298
000210 f7 94 3b 3d 25 a4 4b bd b1 01 ad bc 87 13 86 3d
       0.04579636 -0.049717087 -0.02111897 0.06546693
000220 be fb 01 bd 45 4f 02 3d aa f9 34 3b a4 c9 52 bc
       -0.03173422 0.03181388 0.0027614632 -0.012865458
000230 1d e0 04 bc f6 58 5b bd 69 29 98 bd e3 89 ca 3c
       -0.008110073 -0.053551637 -0.07429773 0.024723953
000240 da b4 7c ba d6 bf ce bd 37 1e 74 bd f1 32 63 bd
       -0.0009639986 -0.100951836 -0.059599128 -0.055468503
000250 3b 1c 69 3d 34 e6 ca 3c 04 bd 29 3d ba 57 4f bd
       0.05691169 0.024767973 0.041440025 -0.050620772
000260 0e 59 97 3d 05 6f 04 bd d7 ff 82 3b 71 bc ae 3c
       0.07390033 -0.03233244 0.0039977836 0.02133009
000270 2b 2e f8 3c de 4a f3 bb 58 b9 04 bc 76 30 a0 bd
       0.030295452 -0.0074246963 -0.00810083 -0.07821743
000280 90 f3 a6 bc 5f fc 27 3c 8a 1a bc bc 6e 53 05 bc
       -0.020379812 0.010253041 -0.022961874 -0.008137567
000290 6c 20 af bb f6 4c 2b bd af 60 9f 3a 0b 8f 1b 3d
       -0.005344441 -0.041821443 0.0012159551 0.037978213
0002a0 c3 14 82 3d ba 66 31 3d 1a e5 2f 3d 10 2c 02 3c
       0.06351616 0.04331086 0.042943098 0.007945076
0002b0 f4 13 9b 3d 3e d3 49 3d a7 46 e4 3c 6e be 1b bd
       0.07572165 0.049273722 0.02786572 -0.038023405
0002c0 8d 6a 33 bc 6f 91 c8 bc 7f 9d 5b bd 80 8b 6e bd
       -0.010950697 -0.02448341 -0.053616997 -0.058238506
0002d0 d5 51 62 3d 8d 46 1f 3b 43 8f 19 bd e5 9c 92 bd
       0.055253822 0.0024303526 -0.03749014 -0.071588315
0002e0 f8 19 56 bd 0d a3 a4 bc c6 b1 1b 3d 65 3c e2 bb
       -0.05227086 -0.02009728 0.038011335 -0.0069041722
0002f0 5e 74 df 3c 9b b5 59 3d c9 c1 2d 3d 5d 85 0b 3d
       0.027277168 0.053151708 0.042421136 0.034062732
000300 30 ee 7d 3d c9 45 00 bc ca 90 f2 3b e3 9f 92 bc
       0.06199473 -0.007829138 0.007402514 -0.017898506
000310 e2 cb 7c 3c 77 c5 c1 bc 2a 95 67 bd bb aa 17 3d
       0.015429469 -0.023653729 -0.05653874 0.037028056
000320 66 d1 57 bd fc 8e f3 bc b1 8a 77 bc 61 d9 6f bc
       -0.052689932 -0.029731266 -0.01510875 -0.0146392295
000330 5d 4a e4 3c 30 4c 38 bd 0b 5a 2d 3c d4 75 d9 3d
       0.02786749 -0.044994533 0.01058055 0.10618177
000340 32 46 50 bd a9 4f 89 bc ca 0a 91 3c 22 18 74 bc
       -0.050848193 -0.016761618 0.01770534 -0.014898332
000350 07 0a 7e 3d e9 86 17 bd d3 3d 63 bd 3f 4d 39 bd
       0.06202128 -0.036993895 -0.055478882 -0.045239683
000360 5f 28 68 3d 41 5a 3b bc ea 35 df 3c 0a ed 78 bd
       0.056679126 -0.011435092 0.027247388 -0.060772933
000370 4e 2c 62 bd 08 cb a9 bc 72 21 41 bd fe 27 8d bd
       -0.055218033 -0.020726696 -0.047151037 -0.068923935
000380 10 8b 2c be b4 c8 e1 3b 55 26 7f 3d b8 7f 39 bd
       -0.16849923 0.0068903808 0.062292416 -0.045287818
000390 7c 9b 5b 3d 00 b8 3a bd e4 c4 93 bc 10 9a cf bb
       0.05361508 -0.045585632 -0.01803822 -0.0063355044
0003a0 2d 9d 29 bc 33 cd 51 3d 13 fc c0 3c 56 f4 4a 3d
       -0.010352415 0.051221084 0.023557698 0.049549423
0003b0 db 8e 3c 3d 7f 4f e7 bd 41 54 cb 3c ba ec 28 3c
       0.046034675 -0.112944596 0.024820449 0.010310346
0003c0 45 ae 38 bc c5 37 01 bc f3 fe ed 3c 11 59 73 bd
       -0.011272018 -0.007886832 0.029052233 -0.059411112
0003d0 00 c0 96 36 ba 52 1c be da 75 43 bd c0 42 23 3d
       4.4927e-06 -0.15265933 -0.047719814 0.03985858
0003e0 3c b8 03 3d 0c d4 7b bd b8 43 40 3c 48 01 00 bd
       0.03215812 -0.06148152 0.011734895 -0.031251222
0003f0 10 96 2f bd e7 db fa 3c 4a 4c a7 bd 42 cd 1d bd
       -0.04286772 0.030622436 -0.08168848 -0.038525827

predicate_mlp2.bias f4 [256]
000000 6f f8 c9 bb 64 a1 23 bd 1e d2 80 bc 94 55 29 bd
       -0.006163649 -0.039948836 -0.015725192 -0.04134138
000010 e6 b7 09 3d da a7 32 bc 63 54 ff 3b 3c ac 51 3d
       0.033622645 -0.010904277 0.007792042 0.051189646
000020 a4 4d 16 bd 2a 0b 9d 3a e4 fe 3d bd a7 28 81 3c
       -0.036695138 0.0011981477 -0.04638566 0.015766455
000030 bc ff 22 bd 85 74 70 3d 0d ed c7 bc 5c fc ca 3a
       -0.03979467 0.05870487 -0.024405027 0.0015486586
000040 b2 3c cf 3c f4 70 4c 3d c8 c2 8a bd 60 9f f1 3c
       0.025297496 0.049912408 -0.06775433 0.029494941
000050 1f 89 72 bd 04 97 0b 3d 96 af f4 3c d1 fb 22 bd
       -0.0592128 0.034079567 0.029868882 -0.039790932
000060 a0 26 1e bd f8 18 19 3d 4e 11 13 bd 26 2f 55 3c
       -0.038611054 0.037377328 -0.035905175 0.013011729
000070 e4 61 b3 bc f6 b5 41 bd b6 e2 c1 3c 85 25 45 bd
       -0.021897264 -0.047292672 0.023667675 -0.048131485
000080 18 db 2b bd a7 a4 8e 3c 2a dc 0c 3d 42 c7 1d bd
       -0.04195699 0.017412497 0.034389652 -0.038520105
000090 80 0a 69 bd 5a c9 26 bd eb 95 aa bc 68 ef 14 3c
       -0.05689478 -0.040719368 -0.02082344 0.009090282
0000a0 ed be 2a bd ed b9 6c bc fa 1f 82 b9 35 e6 ac bb
       -0.041685987 -0.014448625 -0.00024819357 -0.0052764663
0000b0 cd d1 ce 3c 93 5b aa 3c c6 0f e3 3c 78 66 71 bb
       0.025246525 0.02079562 0.027717482 -0.0036834758
0000c0 96 2d d4 bc eb 76 4f bc 30 7a c5 bc c7 58 7f 3b
       -0.025900643 -0.01266263 -0.024106115 0.0038962828
0000d0 b0 d9 7c 3d 66 d3 55 bd 13 5e 06 bd 88 d4 dc bc
       0.06173104 -0.05220356 -0.03280456 -0.026956812
0000e0 18 ed 4d 3d 81 98 85 3b 71 6e 84 3d 46 d3 d2 3c
       0.05027494 0.004077018 0.064663775 0.025735509
0000f0 97 94 61 bd 65 d9 68 bc 70 ac b0 bc 53 51 db bb
       -0.055073347 -0.014211987 -0.0215666 -0.006693044
000100 43 d6 8d bb 3d e5 37 3c 71 ca 1d bd a5 79 3f bc
       -0.0043285205 0.011224088 -0.03852314 -0.011686717
000110 53 a3 62 3d 20 7e 10 bd ef 42 ce bc fd ef b5 bc
       0.05533154 -0.035276532 -0.0251784 -0.022209162
000120 d9 72 7e 3d 51 e2 0c bd 9a 64 0d 3c 3f 41 63 3d
       0.062121246 -0.03439552 0.008629942 0.055482145
000130 40 79 94 bb 14 ed 06 3d 98 b1 94 bb d7 30 51 3d
       -0.0045310557 0.03294094 -0.0045377724 0.051071968
000140 b0 fb 2f 3d b3 df 73 3d d2 d8 13 bd e6 65 72 3c
       0.042964637 0.059539508 -0.036095448 0.014794802
000150 ca 73 32 3d b2 68 30 bd 6e a0 63 bd 47 fa 42 bd
       0.043567456 -0.043068595 -0.05557292 -0.047601964
000160 6d 71 33 3d 42 d1 91 3c e4 b0 45 3c ec 0d da bc
       0.043809343 0.017799977 0.0120661 -0.026617967
000170 12 60 38 3c 24 2d 5f bd 83 63 81 3d 60 23 6e 3d
       0.011253374 -0.05448641 0.063178085 0.058139205
000180 6b d5 69 bc 35 ba 72 3d c9 e7 2e 3d 18 88 fa bc
       -0.014272074 0.059259612 0.042701516 -0.030582473
000190 8b f8 85 bd c5 dc 25 3c ef 39 10 3c 78 35 08 3d
       -0.065415464 0.010123436 0.008802875 0.033254117
0001a0 74 11 44 3d ba 15 21 39 ad 10 a5 3c 23 c2 49 3d
       0.047868207 0.0001536225 0.020149553 0.04925741
0001b0 a3 07 86 3b 7d b8 23 bd 81 e0 dd 3c 74 61 a6 bc
       0.004090266 -0.039970864 0.02708459 -0.020310141
0001c0 dc 1c 1f bc e8 7c 0a bd 86 6e 4b 3d 47 53 13 3d
       -0.00971147 -0.033810526 0.04966595 0.03596809
0001d0 42 8b 5b 3d 6e ee 68 bd d1 46 ba bc 1f 79 56 3d
       0.053599603 -0.05686801 -0.022738846 0.052361604
0001e0 f3 de d5 3b d9 cc 49 bd 8c 3b 4b bd f8 fe 3c 3c
       0.0065268218 -0.049267624 -0.049617335 0.011535399
0001f0 af fd 96 bc c4 e6 71 bc 02 54 b8 3b 72 8b 52 bc
       -0.018431513 -0.0147644915 0.005625249 -0.012850629
000200 43 13 e2 bc eb 30 51 bd dd 32 9e 3c d5 8a 43 3d
       -0.027597075 -0.051072042 0.019311363 0.047739822
000210 3a 6f ec 3c 34 43 1a 3d ff 50 9c 3c 5a 44 1b bb
       0.02886163 0.037661746 0.01908159 -0.0023691864
000220 53 7f 20 3d 1a 1b 8c bc b8 48 f2 3c 5a e5 3c bc
       0.039183926 -0.017102767 0.02957569 -0.011529291
000230 b8 2a 5d 3c fc c0 f9 bb f0 4c d1 bc 08 77 56 3c
       0.0134989545 -0.0076218825 -0.025549382 0.013089903
000240 8b c6 06 bb 41 47 fe 3b bc ff 98 bc 86 ad 83 bc
       -0.0020565118 0.007759959 -0.018676631 -0.016073953
000250 be d8 12 3c b1 68 f7 bc bf 52 4a bc 7d f9 63 3d
       0.008962808 -0.030201288 -0.01234883 0.055657852
000260 9b 2f b8 3c 4f 27 09 bd ff de 09 bd 39 6c 23 bd
       0.022483638 -0.033484753 -0.03365993 -0.03989813
000270 cf ca a7 bc c3 cb 46 3c 72 d7 78 bd 23 c3 05 3c
       -0.020482449 0.0121335415 -0.06075234 0.0081642
000280 7e 54 62 3c fc dd 40 3d 95 ba ca 3c 52 26 67 3d
       0.01381409 0.0470867 0.024747172 0.05643303
000290 89 85 47 3d b1 55 3d bd bf c0 27 3d 7d 24 76 3d
       0.048711333 -0.0462243 0.0409553 0.06009339
0002a0 cd f2 8e bc 5a 36 c1 3c e8 bd 89 3c 38 4c e4 3c
       -0.01744976 0.023585487 0.016814187 0.027868375
0002b0 06 f5 65 3c 17 fd 99 bd 94 cd 57 3d 7d a9 50 bd
       0.014035469 -0.07518976 0.05268629 -0.050942887
0002c0 d7 0d 86 3d 1b db 2e bb a7 aa c6 3c 20 98 91 3d
       0.065456085 -0.002668089 0.024251295 0.07109094
0002d0 4f 48 79 3d 39 f7 ad ba 23 7f 46 ba ce 7e 49 3d
       0.060859974 -0.0013272531 -0.00075720454 0.049193196
0002e0 9b 86 20 bd 63 78 41 3d ce cd 80 3d ab f6 19 3d
       -0.03919087 0.04723395 0.06289254 0.037588757
0002f0 f1 d8 51 bd 8a aa d5 3c fb 0a 14 3d e4 7e 26 bd
       -0.051232282 0.026082296 0.036143284 -0.040648356
000300 50 52 b3 3c 45 10 1e bd 50 c1 4d bd 95 1a 57 3d
       0.021889836 -0.038589735 -0.050233185 0.052515585
000310 c2 2c 4e 3d d1 d3 68 3d e8 89 34 bd 63 50 99 bb
       0.050335653 0.05684263 -0.04407683 -0.0046787723
000320 bf 34 4f 3d ff 14 68 3d 7e 5b 39 3d b6 9d 4f bd
       0.050587412 0.05666065 0.04525327 -0.050687514
000330 94 00 0f bd 4e e4 ef bc 5d 68 15 3d 21 8f 66 bd
       -0.03491266 -0.029283669 0.03647648 -0.056288842
000340 84 86 cf 3c 87 ad ad 3c 10 02 3b bd fc 21 5c 3a
       0.025332697 0.021200908 -0.045656264 0.0008397398
000350 07 e7 2d 3d b7 0a 00 3d e1 6b 52 3c 82 72 e5 bb
       0.042456653 0.03126022 0.012843103 -0.007002176
000360 5f 1c 06 bd f8 f6 3a 3c 50 1a f8 3c d2 85 eb bc
       -0.0327419 0.011411421 0.030285984 -0.028750334
000370 d5 55 49 3d 81 d3 a5 3c 1c 44 e0 3c 5e f5 76 3d
       0.04915412 0.020242454 0.027376227 0.060292594
000380 1f a2 61 3d a2 8b 60 bd f1 5d 3d 3c 83 0c da 3c
       0.05508625 -0.054820664 0.011558042 0.026617294
000390 88 24 63 bd 2d 48 e0 3b 57 44 75 3c 70 d0 a8 bc
       -0.05545476 0.0068445415 0.014969907 -0.020607203
0003a0 14 71 12 bd 1e 82 2d bd f0 2e 80 ba 7c 9b 0d 3d
       -0.03575237 -0.042360418 -0.0009779613 0.03457211
0003b0 5b ce 7b bd cc 82 65 bc f4 7e 5e 3c 67 3c 34 bc
       -0.061476093 -0.014008235 0.013580073 -0.011000729
0003c0 63 97 42 bd 0e 56 aa 3b 3a 99 96 bc f2 90 60 3c
       -0.047507655 0.005198247 -0.018383611 0.013706433
0003d0 4b b4 2d 3c 6b bf f3 3c 2a d1 05 bd 9a 53 e7 3c
       0.010602067 0.029754361 -0.032670178 0.028238107
0003e0 c1 13 46 3d 22 a5 08 3d c6 ac 2f bd 47 33 2c 3d
       0.048358683 0.033360608 -0.04288938 0.04204109
0003f0 4d 90 44 3d 7a 36 91 3b 9d ee 4b 3d 3c 15 73 bd
       0.04798918 0.004431543 0.049788106 -0.059346423

out_mlp1.weight f4 [256, 256]
000000 e9 4e 21 bd ac 79 8e bd a8 13 08 3c 6b 57 7d 3c
       -0.039381895 -0.06956801 0.008305468 0.015462737
000010 f3 b8 8c 3d ce e6 58 bd ae b1 3b 3d f7 41 21 3d
       0.06871214 -0.052954488 0.045823745 0.03936955
000020 20 10 d5 3b e2 6a 68 3b bc ce dd 3c 02 31 3f bc
       0.0065021664 0.0035464098 0.027076118 -0.011669399
000030 2e 36 80 bc f0 8f de 3c ce b8 c1 bc c1 49 da bc
       -0.015650835 0.027168244 -0.023647692 -0.026646497
000040 67 f4 88 bd d5 95 75 bc f8 2d ad 3c 06 7e 4e 3d
       -0.06687241 -0.014989336 0.021140084 0.050413154
000050 ac ff 30 bd c0 71 23 3d da 11 71 3c 5e b7 8b bd
       -0.043212578 0.039903402 0.014713729 -0.06822084
000060 64 76 cf bc 9b 73 33 3d f2 39 a9 3d 1f ae 4c bd
       -0.025325008 0.04381142 0.08263005 -0.049970742
000070 20 ec 5d 3d e6 43 88 bd 4e f0 e4 bc 70 cc 2f 3d
       0.054180264 -0.066535756 -0.027946617 0.042919576
000080 80 ca 50 3b e4 bc 87 bd b7 e2 4b 3d 04 42 f6 3c
       0.003185898 -0.06627825 0.04977676 0.030060776
000090 70 5e 07 3c ac ea 5d bc 32 02 92 bd dc cc 53 bd
       0.008262262 -0.01354472 -0.07129325 -0.05170904
0000a0 c7 95 40 3c 6f 5d 66 3b 19 28 66 bc 42 98 b2 3c
       0.01175446 0.0035150906 -0.014047646 0.021801118
0000b0 63 45 29 3a 2b f6 0a 3d 55 b3 c8 bc b4 5b 73 bd
       0.0006457178 0.03392617 -0.024499575 -0.059413627
0000c0 e2 fe 19 3e 79 78 a4 bd fa 22 38 ba ba 18 44 3c
       0.15038636 -0.08030791 -0.0007024255 0.011968786
0000d0 e4 af d8 3d 44 c0 12 bd 97 a6 68 bb a0 38 bb bb
       0.105804235 -0.03582789 -0.0035499686 -0.0057135373
0000e0 29 9b de bb 68 56 74 bd 22 a5 3e 3d c5 bb 81 bd
       -0.006793399 -0.059652716 0.0465442 -0.06334642
0000f0 37 cb a1 bc ef 39 01 3e 1a f8 52 bd 7b 92 f3 3c
       -0.01975022 0.12619756 -0.05150614 0.029732933
000100 34 c5 6a 3b 80 0d 9c bd 64 20 83 bc 9c e5 95 3e
       0.0035823109 -0.076197624 -0.016006656 0.2927674
000110 99 de 81 bd 14 32 a5 bc 18 0a 30 3d 3e 5c 19 bd
       -0.06341285 -0.02016548 0.042978376 -0.037441485
000120 36 34 9d bd 19 cb 33 bd ce 32 50 3e 7b 85 b6 bc
       -0.07675974 -0.04389486 0.2033188 -0.022280445
000130 60 71 dc bc bf 49 aa bc ea 28 ee 3a 1b a8 93 bc
       -0.02690953 -0.020787118 0.0018170152 -0.018024495
000140 9d cb c7 3b d3 0c af bc 34 c3 13 bb 93 40 6f bd
       0.0060972706 -0.02136842 -0.002254677 -0.058411192
000150 a7 99 7e bb 40 13 88 3b ac 41 24 3c e7 b3 8d 3c
       -0.0038848908 0.0041526854 0.010025423 0.017297698
000160 07 76 c3 3c 2a 6a 3b 3e 3a 3d 57 3d ac 10 a5 bc
       0.02385999 0.18302217 0.052548625 -0.020149551
000170 de 09 83 bd 9c e4 9c 3c 07 20 58 3d 04 4e 6e 3d
       -0.063983664 0.019151978 0.05276492 0.05817987
000180 4e f8 34 3c 47 08 b4 3d 72 da f5 bb 31 ba 0b bd
       0.011045529 0.08790641 -0.0075028474 -0.034113113
000190 92 d9 36 bc b6 17 b0 3c 48 77 f2 3c b6 b5 28 3d
       -0.011160271 0.021495681 0.029597893 0.041188918
0001a0 c3 38 b6 3b 19 d4 4a bd 62 6a 5f 3d 05 84 56 3d
       0.0055609657 -0.04951868 0.054544814 0.052371997
0001b0 86 38 41 3e 66 bf 42 3d 6e 97 48 bd e6 8e 2f bd
       0.18869218 0.047545813 -0.04897254 -0.042860888
0001c0 f3 ed c0 3d cc 3a f8 3c 5f 13 9b bd 4d ce 46 bd
       0.09420385 0.030301474 -0.07572054 -0.048536588
0001d0 8b 87 85 3d 4e 3e 0c 3c 2f fd 92 3c 51 9e 1d 3d
       0.065199934 0.0085597765 0.017942993 0.03848106
0001e0 de a7 f6 3c 7b df fd 3b 58 ee fe 3c ba c1 b5 3c
       0.030109342 0.007747588 0.03111951 0.022187103
0001f0 e4 39 48 bd c7 e4 ee bc 11 f0 68 bb 93 03 82 bc
       -0.048883334 -0.029161824 -0.0035543481 -0.015870845
000200 5b 05 2e bc 0d 99 0d 3b 90 65 ab bc 1e 35 47 3d
       -0.010621394 0.0021606118 -0.020922452 0.04863464
000210 02 89 4a bd c7 98 ce bd b4 ed b7 3a 90 00 8f bd
       -0.049447067 -0.10087734 0.0014032633 -0.06982529
000220 b4 a9 68 3d c7 37 f3 3c 33 6f 18 3d fe 85 71 bd
       0.056802467 0.029689683 0.037215423 -0.058965676
000230 a9 72 0d be 8e 0f 29 3d c0 98 89 bc 2a 04 1d 3c
       -0.1381327 0.0412746 -0.01679647 0.009583512
000240 7d 9a 3f 3d d6 f7 20 3d 22 2a 1e bd 74 a7 91 bd
       0.04677819 0.039298855 -0.0386144 -0.07112017
000250 a2 62 9f bd 45 74 c4 3b 17 68 bf bc d8 66 fa bb
       -0.077824846 0.0059953057 -0.023365064 -0.0076416545
000260 5c 0d 50 bd 82 10 37 bd c4 cb dc bc 73 ba f8 3c
       -0.05079399 -0.044693477 -0.026952632 0.030362343
000270 22 6e 53 bc 76 bc 2c bd 9c a5 c8 bc 5b 51 fb 3b
       -0.012904676 -0.042171918 -0.024493031 0.0076696104
000280 0c 97 89 bd 62 5b a4 3c 8d eb 5c bd 30 28 65 3c
       -0.06718263 0.020063106 -0.053935576 0.013986632
000290 a8 65 2b 3d 93 2e bc bc 36 63 3b bd 3e 84 43 3d
       0.041844994 -0.022971427 -0.04574891 0.047733538
0002a0 9d ba 5e bd 7d 90 85 bd f6 96 31 3d 85 b3 22 bb
       -0.054377187 -0.065216996 0.04335686 -0.002482624
0002b0 37 fb 3f 3c 2a 83 69 bd f2 4e 73 bd 38 1c 22 bb
       0.011717609 -0.057009853 -0.05940146 -0.0024736058
0002c0 b7 7d 12 bd 48 eb 07 3d bc 31 8f bd 89 8f 29 bd
       -0.035764422 0.033183366 -0.06991908 -0.04139665
0002d0 e5 c0 94 bc 36 eb 29 bd b6 e4 bc bc e0 37 17 3d
       -0.018158386 -0.04148408 -0.023058277 0.03691852
0002e0 b5 40 47 3b ca 3c c1 bc c1 71 23 3d 66 37 7c bd
       0.0030403559 -0.023588557 0.039903406 -0.06157627
0002f0 e2 1d 17 3d 05 4e 23 bb 80 25 bb bc 78 9e 76 bc
       0.036893733 -0.002491833 -0.02284503 -0.01505243
000300 0f c6 f2 bb e8 90 f2 3a 23 1e 81 3c 74 8f 4a 39
       -0.0074088643 0.001850632 0.01576144 0.00019317662
000310 39 c8 b0 bc c7 0e 10 bd c0 fd ca ba 39 45 21 3e
       -0.021579849 -0.035170343 -0.0015487 0.15749063
000320 9b 16 a0 3c 58 9d 1a 3d cb ed 37 3c 82 48 05 3d
       0.01954203 0.03774771 0.011226128 0.032539852
000330 a0 af 79 3c 50 3d 26 bd fb ad 64 bd b4 c9 7c 3c
       0.015239626 -0.040585816 -0.055829983 0.015428949
000340 d3 5b f4 3d ba 90 da 3c 3b 2c b7 3b 15 9a 6a 3d
       0.119315766 0.02668034 0.0055899895 0.05727585
000350 fa 97 b0 bc 1b 34 95 bd 68 a4 1a bd 84 cf b8 3d
       -0.021556843 -0.07285329 -0.037754446 0.090239555
000360 d1 95 4b 3c 4d a2 64 bd b6 e2 14 3c 21 ac 7e bd
       0.012425856 -0.055818845 0.009087255 -0.062175874
000370 dd 4d de 3c 69 b7 3a 3d b4 68 f8 3c fe ef 13 bd
       0.027136737 0.04558507 0.030323364 -0.036117546
000380 86 4e 53 3d e0 f7 4f bd 0a 2b cf bc 3d 8f 3e bc
       0.051588558 -0.0507735 -0.025289077 -0.01163083
000390 8c 03 a7 3c 01 4b f0 3c 14 9d 67 3c 85 2b ee 3c
       0.020387433 0.02933264 0.014136571 0.029073486
0003a0 55 cd 1e bd 02 d4 4f bd 45 37 e8 3d f7 6a 94 3c
       -0.03877004 -0.050739296 0.11338667 0.018117411
0003b0 81 59 87 bd 5c de 54 3c 5b 6a 8c bd 55 b3 e7 bc
       -0.066088684 0.012992468 -0.06856223 -0.028283754
0003c0 40 e6 81 bb c5 8d 66 3e 5b 91 50 3c 98 f1 cb 3c
       -0.0039642155 0.22515018 0.012729968 0.024895474
0003d0 01 69 23 3c 14 72 e1 3c bc e0 06 3d ca fb 5a 3d
       0.009973765 0.027520217 0.032929167 0.05346278
0003e0 4e f6 44 3d c2 b9 89 3d ca cb 3c 3d 99 38 b1 bc
       0.048086457 0.067248836 0.046092786 -0.021633433
0003f0 92 cd 52 bd 30 ff 8e bd 2e 3e af bd 9e ae 2c bd
       -0.05146558 -0.06982267 -0.08556782 -0.042158715

out_mlp1.bias f4 [256]
000000 00 93 0a bc 54 93 39 3d 8d fb 5e bd 06 74 54 bd
       -0.008457899 0.04530652 -0.054439116 -0.05186846
000010 69 ab ab 3c 2e e8 2f 3c 82 2d 4d 3c 07 32 45 3d
       0.020955758 0.010736508 0.012523057 0.048143413
000020 49 37 05 ba 92 3e ae 3c 63 82 2a 3c 56 09 59 3d
       -0.00050817855 0.02127007 0.010407063 0.05298742
000030 f6 c8 2f bd e5 21 58 3d e2 34 81 bd 0e 8b 71 bd
       -0.04291626 0.0527667 -0.06308915 -0.058970504
000040 e5 e1 f8 3c 57 aa db 3b 0a fa 6c bd e3 16 0a 3d
       0.030381152 0.0067036557 -0.057855643 0.033713233
000050 c2 66 21 3d 98 d9 46 bc 47 6d 2d 3d e0 f0 32 bd
       0.039404638 -0.012136839 0.042340543 -0.043686748
000060 0a 8a 1d bd 06 ad 70 bd cf 05 8d 3c fe 51 22 bd
       -0.038461722 -0.058758758 0.017214684 -0.039628975
000070 a2 a7 61 bd 9a d7 fb 3c 58 8a 95 3d 09 42 d0 bc
       -0.055091508 0.030742455 0.073017776 -0.025422113
000080 82 06 12 bd 09 e6 1b bd 2d d2 a7 3c 98 53 3f 3d
       -0.035650738 -0.038061175 0.020485962 0.04671058
000090 9d ae 38 bd 5f d2 7c 3d 60 28 39 3c c9 ab 4c 3d
       -0.0450884 0.061724063 0.01130113 0.049968515
0000a0 c7 35 bd 3c 94 c0 7e 3d 97 61 7d bd 00 60 a2 bc
       0.023096932 0.062195376 -0.061860647 -0.019821167
0000b0 05 40 bf bc 2c ca fa 3c 29 8a 5d bd 2c 48 a8 bd
       -0.023345957 0.030613981 -0.054086838 -0.08216891
0000c0 15 7b 46 bd e0 21 21 bd 62 da 0b 3d 3a bc 15 bd
       -0.048457224 -0.039338946 0.034143813 -0.03655646
0000d0 8d 91 dc 3b e3 9c 98 bd 96 68 77 3d 8f 0e 3f 39
       0.006731218 -0.07451799 0.060402475 0.00018220603
0000e0 ca b5 0f bd 48 ef 70 3c 36 41 21 bd dc f4 3b 3d
       -0.035085477 0.014705487 -0.03936883 0.045887813
0000f0 8c 64 14 bd a6 3c 82 bb 87 8b 39 3d 62 ae f1 bb
       -0.0362287 -0.003974515 0.04529908 -0.0073755244
000100 b4 5c 81 bc bf 06 0c bc da c9 e1 3b f4 87 f0 3c
       -0.015791275 -0.00854653 0.0068905177 0.029361703
000110 f6 cd b4 3c 01 cb c2 3a 9f ac 92 3d 10 4d 75 bd
       0.022070866 0.0014861525 0.07161831 -0.059887946
000120 8c 16 45 bd 53 46 8e 3d f8 7a 10 bd e1 82 b7 ba
       -0.048117206 0.06947007 -0.035273522 -0.0014000797
000130 6f 1e 92 3d 7a a4 53 bd 39 77 06 3d ce c0 23 bd
       0.07134711 -0.05167053 0.032828543 -0.039978795
000140 30 0a 77 bd e0 67 91 3b b8 a4 c8 3c b6 b4 3e bd
       -0.06031245 0.0044374317 0.024492607 -0.046559058
000150 70 20 8e bc a2 0a 85 bd 41 d5 92 3d af 88 12 3c
       -0.017349452 -0.06496169 0.07169581 0.008943721
000160 70 34 1b bd 76 52 aa 3c 6f fa 90 3d 8e 56 3b bd
       -0.037891805 0.020791274 0.070790164 -0.04573684
000170 8d 60 cc bc 88 59 8f 3c 4d b4 90 3d c1 a4 4f bd
       -0.024948383 0.017498747 0.0706564 -0.05069423
000180 93 84 93 3d 5a 15 6c bd 4a fd 64 bd 66 d8 98 3d
       0.07203021 -0.05763755 -0.055905618 0.0746315
000190 ca 64 7c 3d 30 9d 2d bc 14 e3 2b bd bd 75 94 b9
       0.061619557 -0.010596558 -0.041964605 -0.00028316482
0001a0 04 dd ae 3c a0 4d ba bc 19 33 82 3c f4 e3 96 bc
       0.021345623 -0.022742093 0.015893506 -0.018419243
0001b0 4f 31 15 bd 97 1a 98 3d b7 6d 06 3d 3f a6 04 bd
       -0.036423977 0.074269466 0.032819476 -0.032385107
0001c0 90 9a c9 bc 22 bf 88 3d 56 ff 2b 3c c6 b5 23 3c
       -0.024609834 0.06677081 0.010497889 0.009992069
0001d0 60 82 81 bd 9c 5b 06 bd 1e 8c f5 3a 10 0f 4d 3d
       -0.06323695 -0.03280221 0.0018733775 0.050063193
0001e0 18 2f 57 3d 68 f9 e0 bb 82 66 f5 3c 87 58 0e bd
       0.052535146 -0.006865669 0.029956106 -0.034752395
0001f0 62 86 64 3d fb 17 2e 3d 80 3a 65 ba d5 94 7e 3d
       0.05579222 0.04250334 -0.0008744374 0.062153656
000200 f8 19 3b bd 86 89 95 ba 0b 48 69 3d df b4 f9 3c
       -0.045679063 -0.0011408783 0.05695347 0.030481754
000210 6c 69 34 3d c0 4a a1 bc 23 3c 9a bb 60 85 1b 3b
       0.04404585 -0.019688964 -0.004706876 0.002373062
000220 80 83 09 3b 7a f4 0b 3d 08 64 6e bd b4 9c b1 bc
       0.002098292 0.034168698 -0.058200866 -0.021681167
000230 73 4c 3f 3d 26 a8 70 3d 3e 92 21 bd 1f b6 f3 bc
       0.046703767 0.05875411 -0.039446108 -0.029749928
000240 d4 7b 2c 3d be 59 57 bd 8b ee 43 bc 6a 0a 7f 3c
       0.04211028 -0.05257582 -0.011958729 0.015566448
000250 b2 4f 88 3c 07 9d f1 bc 3c 8d 32 bd 3d 41 2a bd
       0.016639564 -0.029493822 -0.043591723 -0.041566122
000260 a2 35 10 bd 83 75 c5 bc 3e f8 bc bc f7 a2 20 3d
       -0.0352074 -0.024103886 -0.02306759 0.039217915
000270 88 be 58 3d 7c 1e 90 bc ff 77 6c 3d 08 5a 2a bd
       0.05291608 -0.017592661 0.057731625 -0.041589767
000280 a9 67 ca 3a be 6f 9c 3c 93 48 85 3c 63 7d 68 3c
       0.001544227 0.019096252 0.016269958 0.014190051
000290 72 ab 9a 3d 20 0d 28 bc 52 38 f2 ba 38 23 3c 3d
       0.07552232 -0.0102570355 -0.001847992 0.045932025
0002a0 be 6b 05 3d 46 61 1b bb 8d 70 9c bd d0 ca 5b 3d
       0.032573454 -0.0023709103 -0.07638655 0.053660214
0002b0 a2 86 7b 3b 13 79 5d 3d 4c 68 b5 bb 82 d2 ee bc
       0.0038379808 0.054070543 -0.005536115 -0.029153112
0002c0 e8 ce 4b bd 00 39 19 3c 32 a2 4e bd dc aa 91 3b
       -0.049757868 0.009351969 -0.05044765 0.004445417
0002d0 14 27 1c 3d df e0 45 bd d5 ee 98 bc eb 0e 93 bc
       0.038123205 -0.048310157 -0.018668571 -0.01795145
0002e0 83 0a ac 3c 4c 22 b7 bc d3 a0 17 3d 18 3d 3d 39
       0.021001106 -0.022355221 0.03701861 0.00018047204
0002f0 58 68 58 3d 8c 61 69 bd 80 14 03 ba d4 e0 76 3d
       0.052833885 -0.056977794 -0.0005000308 0.060273007
000300 96 6b 29 3b 5b 76 35 3d 6f 42 eb bc 32 1a 71 bd
       0.002585148 0.044302326 -0.028718201 -0.058862872
000310 85 74 74 bc 5e db 29 bd 8b b4 50 bd cc 59 74 bd
       -0.014920359 -0.04146897 -0.05095343 -0.05965595
000320 f4 38 72 bd 84 50 38 3d ad 38 0e bc f8 fa 6a bd
       -0.059136346 0.04499866 -0.008680505 -0.05736825
000330 4a f1 dd 3b ee 37 c1 bd 00 6b d3 3c 8f 6e f0 bc
       0.0067731487 -0.09434496 0.025807858 -0.029349593
000340 30 e7 80 3c b1 5b dd bc ec 27 b7 bc 49 34 39 3d
       0.015735239 -0.027021261 -0.022357903 0.04521588
000350 5d 4e 9f 3d f6 ec 0d 3d 3f 9b 8f 3d 3f aa 35 3d
       0.077786185 0.03464981 0.07012033 0.044351812
000360 0e 26 03 bd 2e a3 e9 bc 6f 4f 0a 3c 5f cb 81 bc
       -0.032018714 -0.028520193 0.00844179 -0.015844045
000370 c3 e7 80 3b 38 9e f3 bc 66 fe 08 3d cd de 8f 3d
       0.003933878 -0.02973853 0.03344574 0.07024918
000380 65 d1 7c 3c e0 18 97 bc f0 41 10 bd 40 c5 e6 bc
       0.015430783 -0.018444479 -0.035219133 -0.028170228
000390 13 7b 47 3d 72 92 06 3d c6 20 7d bd ac 47 2f bd
       0.048701357 0.032854505 -0.061798833 -0.04279296
0003a0 a1 77 46 3d 93 46 18 3d fb 15 b5 3c 44 6a b2 bc
       0.04845393 0.03717668 0.022105208 -0.021779187
0003b0 f8 54 a1 bc 19 e9 28 bd f8 99 d5 3b db a3 a1 bd
       -0.019693837 -0.041237924 0.0065185986 -0.07892581
0003c0 ed d4 79 bc 40 eb 90 bc a6 1c 25 3d 4e 73 e0 3c
       -0.015248519 -0.017690301 0.040310524 0.027398732
0003d0 9f b1 8f 3c 24 9a 0c 3d e7 b6 8d 3d b9 15 8b bc
       0.017540751 0.034326687 0.069196515 -0.016978132
0003e0 19 15 00 bd 00 8d 64 ba 43 b1 79 bc d1 ae e0 bc
       -0.03127012 -0.00087185204 -0.015240016 -0.027427109
0003f0 cd 4a bf bc 7d 94 41 3b a2 a6 d5 ba 50 0d ad bc
       -0.023351097 0.0029537969 -0.0016300271 -0.021124512

out_mlp2.weight f4 [1, 256]
000000 3d dd 06 3e c8 27 85 bd 70 70 df 3d 18 0c 19 bc
       0.13170333 -0.06501728 0.109101176 -0.009341262
000010 fa 3f b6 bc 47 0b d4 3e 9b b9 1b bc e6 c4 ac bd
       -0.022247303 0.41414854 -0.009504701 -0.08435993
000020 af d9 ae b9 fa 67 02 3d 7b 78 36 bb c0 7c 58 3e
       -0.00033350053 0.03183744 -0.0027842808 0.21141338
000030 e8 42 a4 bc 00 21 0e 3e de a1 b7 3b ca 13 60 bd
       -0.020051435 0.13879776 0.005604013 -0.054706372
000040 e3 0a 33 3d 68 3c 7d 3e ad ad 3e bd 27 be 99 3c
       0.043711554 0.24730074 -0.04655235 0.01876743
000050 3f 1d 15 3c 02 ed 47 3d 40 31 77 3c c8 e9 36 bd
       0.009101211 0.048810013 0.015087426 -0.044656545
000060 d6 6c bb bc 12 b0 bd 3d b4 a1 21 bc 92 0c 74 bd
       -0.022879045 0.09262098 -0.009865213 -0.0595823
000070 bc 90 08 3c a0 75 fc bc 77 c5 95 bc 21 92 d7 bb
       0.008335289 -0.030817807 -0.018282635 -0.006578699
000080 3f a3 07 3f 51 7b 30 bd 3d 3d 39 3d d3 0e 96 3b
       0.5298347 -0.043086354 0.045224417 0.004579404
000090 10 d4 c9 39 82 20 36 bd 08 f3 53 bd 27 98 94 3c
       0.00038495706 -0.044464596 -0.051745445 0.018138958
0000a0 9e 6f 74 bc 41 d6 09 bd 35 33 94 3c 58 7e 6d bc
       -0.01491919 -0.033651594 0.018090824 -0.014495455
0000b0 80 1e 11 3d 7e a7 03 3e 8e 94 d1 3b 42 8b 5a 3c
       0.035429478 0.12856862 0.006395883 0.013338866
0000c0 5a c9 ba bb 83 60 33 bb d6 24 85 3d f8 92 61 3d
       -0.0057002725 -0.0027370758 0.065011665 0.0550718
0000d0 7e 7a 5c 3b 30 c4 e5 3d 1b 48 5b bd 89 62 5a bd
       0.0033642347 0.112190604 -0.053535562 -0.053316627
0000e0 08 82 0b bc c2 3f 30 3d ce 6d ab 3d 7a 99 f2 3c
       -0.008514889 0.043029554 0.08370553 0.029614199
0000f0 6f 0d 67 bc db f5 02 3e 3c 7d 81 bc 4a 24 8e bd
       -0.014102324 0.12789099 -0.015806787 -0.06940515
000100 e6 bf 1c 3d da 95 0e bd 5c a3 2c 3d 8a 3d 29 bd
       0.038268946 -0.03481088 0.04214798 -0.041318454
000110 94 b4 10 3d 2c 5d 1c bd 40 bb c3 bc 00 1c a1 3c
       0.035328463 -0.038174793 -0.023892999 0.019666672
000120 6d aa 56 3d d3 43 93 bd 5a e5 78 bd bb 1a eb bc
       0.052408624 -0.07190671 -0.0607656 -0.02869927
000130 87 43 c9 bc 28 2b 9b bc bd fe 99 bd 78 54 64 3c
       -0.024568332 -0.018941477 -0.075192906 0.013936155
000140 a4 9f ef bc 1c 00 56 3b 6f ab 03 3b d5 af cc 3c
       -0.029250927 0.0032653874 0.0020091196 0.024986187
000150 fe 3e 45 bd 34 a2 36 3d 62 ec 2f bd ef ea 99 bd
       -0.048155777 0.044588283 -0.04295004 -0.07515513
000160 2b 79 9d 3c f2 53 de 3c f4 62 d8 bc 18 31 88 bc
       0.019222816 0.027139638 -0.026414372 -0.016624972
000170 a5 3a a1 bd 1f 96 f1 bc 8d ae 9a bd 4a f8 d0 bc
       -0.07872514 -0.029490529 -0.07552824 -0.025509018
000180 49 d1 16 bd 11 c1 15 bd 5b 2b 57 bd 85 09 0f bd
       -0.036820684 -0.036561076 -0.05253158 -0.034921188
000190 11 3b 04 bd 5a a5 55 3d 79 92 04 3c 2d 52 1d 3c
       -0.032282893 0.052159645 0.008091562 0.009602112
0001a0 bc 78 81 3b 7e 4b 6a 3d b6 2f 96 bd e0 51 f3 3c
       0.0039511602 0.0572009 -0.07333319 0.029702127
0001b0 9d c9 11 3d 0d 5d 2f bd 85 93 d4 3d 69 39 45 3d
       0.035592664 -0.04281335 0.103796996 0.048150454
0001c0 44 7b 5b 3e cc ec bc bc 2e 23 62 3b c2 c4 1c bd
       0.21433741 -0.023062132 0.0034505832 -0.03827358
0001d0 da a0 2e 3c c9 d0 25 bd 79 59 b6 3c 2d 40 09 bd
       0.010658467 -0.040482316 0.02225946 -0.03350847
0001e0 d7 8a 41 bd e2 52 02 bb 0c 17 75 bc ac 97 85 3c
       -0.04725155 -0.0019885828 -0.014959108 0.016307674
0001f0 70 7b e7 3d f6 22 54 3d b6 35 02 3d e3 93 88 bd
       0.11302841 0.051791154 0.031789504 -0.06668832
000200 f0 09 c8 3c c8 3f 41 3d bd af b3 bc f1 4a ea ba
       0.024418801 0.047179967 -0.021934384 -0.0017875117
000210 8a 8f 9d 3c 80 ed d3 bb a4 d8 a7 bc b6 72 5c bd
       0.019233484 -0.006467521 -0.020489044 -0.053820334
000220 f0 c1 39 bc ce 4b 84 bd a0 58 b4 bc e0 b5 0f bb
       -0.011337742 -0.06459771 -0.022014916 -0.0021928474
000230 2a 14 3a 3f 55 be 58 bd a0 76 32 bc f0 38 11 3d
       0.7268702 -0.05291589 -0.01089254 0.03545469
000240 6e 4b 60 3d 80 52 ad bc df f6 73 bb d3 96 b4 bc
       0.054759435 -0.021157503 -0.0037226004 -0.022044575
000250 44 bf d4 3b b1 bd 25 3d 30 62 8b bc d0 f8 54 bd
       0.006492527 0.040464107 -0.017014593 -0.0519951
000260 d1 a8 01 3e 3f 1a 8a bb e3 f0 2e 3d e1 84 1b bd
       0.12662055 -0.0042145546 0.042710196 -0.03796852
000270 6a d2 9e bc da 6c f1 3d 0b 56 c0 3d cc 09 0c 3e
       -0.019387443 0.1178834 0.093914114 0.13675612
000280 7f b3 ed bc e1 42 1b 3d 57 91 17 3e bd bd 0b 3b
       -0.029016254 0.037905578 0.14801537 0.002132281
000290 8d 46 3e bd ff 48 77 bb 45 8c 07 bd f2 10 4d 3d
       -0.046454 -0.0037732718 -0.033092756 0.05006499
0002a0 ba b9 e9 3d e9 fe 0c 3c c1 23 9e 3c 08 f0 fb ba
       0.11412378 0.008605697 0.019304158 -0.0019221315
0002b0 c6 c8 43 bd 42 d3 1b 3e c5 24 dc 3c 0f 72 98 3c
       -0.047798894 0.15217307 0.026873002 0.018609075
0002c0 02 99 f5 bc 7a 15 67 3d 88 be 55 3d 15 dc ae 3e
       -0.029980186 0.056416966 0.052183658 0.34152284
0002d0 87 68 36 3d 9c d5 3c 3e 72 7d 07 3d 83 ff 82 3c
       0.04453328 0.1844086 0.03307862 0.015990978
0002e0 c6 be 02 bc e3 d3 30 bd 5e 32 96 bd 95 23 44 3b
       -0.007980054 -0.04317082 -0.073338255 0.0029928435
0002f0 49 50 d5 3d 64 61 23 bb 9c 1f de bc 29 e7 9f bd
       0.10415704 -0.0024929876 -0.027114682 -0.07807762
000300 96 0e 80 bd 5b 7e 22 3e 9d 35 96 bb a8 ef 28 3c
       -0.06252782 0.15868513 -0.004584028 0.010311045
000310 96 de a1 3c 39 91 01 bd 5f 15 71 bb c8 fd bd 3c
       0.019759458 -0.031632636 -0.003678642 0.023192301
000320 5c 32 26 bd 74 b4 e8 3c 30 df b4 b9 68 6c 52 3c
       -0.04057537 0.02840636 -0.00034498563 0.012843229
000330 d9 24 75 3b 1a 6c 83 bc c8 dc 30 3c a0 85 13 bd
       0.0037405996 -0.016042758 0.010794826 -0.036016107
000340 b4 4c 93 bd 7e a5 23 bd f6 65 10 3d 7e b0 0a 3d
       -0.07192364 -0.039952748 0.035253488 0.033859722
000350 9d a1 d6 bc e9 3d 1a 3b 8a bc 3c be ac 76 2c bd
       -0.02620011 0.0023535436 -0.18431297 -0.04210536
000360 76 ef 47 bd 12 7d a3 bd b8 dc fa 3c 1b b7 05 3b
       -0.048812352 -0.0798284 0.030622825 0.0020403329
000370 25 ec 47 bd a7 e0 5b bc bb f3 16 3d d2 14 63 bc
       -0.04880919 -0.0134202605 0.036853533 -0.013859944
000380 9e 7b fd 3c 04 1a 72 3c 73 95 1b bd 1d 71 88 3c
       0.030942734 0.01477671 -0.037984323 0.0166555
000390 bd b5 d4 bd 4b c3 45 bd 7e 8a 56 bd e0 73 16 3b
       -0.10386226 -0.04828195 -0.05237817 0.002295725
0003a0 2a f2 16 3e 92 90 68 bd 85 e5 0b bd ec 07 2f bd
       0.14740816 -0.056778498 -0.034154434 -0.042732164
0003b0 10 fc c3 bb 45 36 c8 3b 61 c0 58 bc a6 26 a3 3b
       -0.005980976 0.006109985 -0.01322946 0.0049789725
0003c0 8d 7d fd 3c 00 11 f4 3b 98 b6 91 bc 76 64 93 bd
       0.030943656 0.0074483156 -0.017787263 -0.07196896
0003d0 20 9b 04 3e e8 07 e3 3b 5b d9 95 bd 28 69 8a 3c
       0.129498 0.0069284327 -0.07316848 0.016895846
0003e0 1e 50 f4 bb 4c 15 e1 3c e2 5b 1e bd 0b e3 6a 3d
       -0.00745584 0.027475975 -0.038661845 0.05734543
0003f0 24 6c 93 bc 34 da 27 ba ae 19 d0 3d 51 32 e8 bc
       -0.017995901 -0.0006403059 0.10161148 -0.028344305
