model/setconv_model.pth (torch, 539912 bytes, 7 tensors)

predicate_mlp1.weight f4 [256, 8]
0	0xbdeb7f76	-0.114989206
1	0xbf00af73	-0.50267714
2	0x3e2673b9	0.16255082
3	0xbd3ce6d0	-0.046118557
4	0x3ea1cc3d	0.31601134
5	0xbeb08b34	-0.34481204
6	0x3e11de8f	0.14245056
7	0x3eabad3b	0.33530602
8	0x3ea356d7	0.3190219
9	0xbda25f30	-0.07928312
10	0x3a126468	0.00055844197
11	0xbea81879	-0.3283117
12	0xbe887b6a	-0.26656657
13	0x3e5b043c	0.21388334
14	0x3cea7000	0.028617859
15	0xbebdc26a	-0.3706239
16	0x3d6cb8c6	0.0577934
17	0xbe8a09ce	-0.26960605
18	0x3e3b808d	0.18310757
19	0xbda07c24	-0.07836178
20	0xbeab8bae	-0.33505005
21	0xbe7548cf	-0.23953556
22	0x3cb94a55	0.022618452
23	0xbe98a2b5	-0.29811636
24	0x3e572f0f	0.21014045
25	0xbe62d412	-0.22151211
26	0xbddef652	-0.108868256
27	0x3e29d6e4	0.1658588
28	0xbde2b998	-0.110705554
29	0xbe4179cb	-0.18894117
30	0x3e601d5c	0.218862
31	0xbec67d71	-0.3876758
32	0xbd2dd210	-0.04243666
33	0xbde52c5c	-0.111901015
34	0x3c3adf00	0.011405706
35	0x3e1d99a6	0.15390643
36	0xbe9ab84e	-0.30218738
37	0xbea0cdf9	-0.31407145
38	0x3e30b002	0.17254642
39	0xbe889082	-0.2667275
40	0xbe8e6632	-0.27812344
41	0xbbc9ef89	-0.006162588
42	0xbe86a112	-0.26294762
43	0xba5fca0b	-0.00085368817
44	0x3df64807	0.12025457
45	0xbe219695	-0.15780099
46	0xbe12b1bc	-0.14325613
47	0x3e9a9899	0.30194548
48	0xbe927cfe	-0.28610986
49	0x3eae3c14	0.3403021
50	0xbe8555a5	-0.26041904
51	0xbeb1bd09	-0.34714535
52	0x3df752ac	0.12076315
53	0xbe824ec2	-0.25450712
54	0x3dcef16b	0.101046406
55	0xbecba36d	-0.3977312
56	0x3e817de0	0.25291348
57	0xbe6fa794	-0.2340377
58	0x3deda0a5	0.11602906
59	0x3e924626	0.28569144
60	0xbeb5c047	-0.35498258
61	0xbe89cab8	-0.26912475
62	0x3dfa490a	0.12220962
63	0x3e92910e	0.28626293
64	0x3e850238	0.25978255
65	0xbe82b5a7	-0.25529215
66	0x3e18179a	0.14852753
67	0xbd90ffb5	-0.07080022
68	0x3e8ea274	0.27858317
69	0xbe2b6a01	-0.16739656
70	0xbe2ca75f	-0.16860722
71	0xbe9bee9f	-0.3045549
72	0xbe330f1c	-0.17486233
73	0x3e44490d	0.19168492
74	0x3d126662	0.03574217
75	0xbed0170e	-0.4064259
76	0x3e1816fc	0.14852518
77	0xbd035625	-0.032064576
78	0xbea2f3a0	-0.31826496
79	0x3eca0b89	0.39461926
80	0xbe8eefce	-0.2791733
81	0x3e909034	0.28235018
82	0xbf0c1ae9	-0.5472856
83	0xbdfdd416	-0.12393968
84	0xbd8edc50	-0.06975615
85	0x3e598efc	0.2124595
86	0xbe687592	-0.227011
87	0x3f0dc92e	0.553851
88	0x3d7d45a6	0.061834
89	0x3ea80c38	0.32821822
90	0x3e189902	0.14902118
91	0x3da22020	0.079162836
92	0xbe83e824	-0.25763047
93	0xbeb140d2	-0.34619766
94	0x3e6a1336	0.22858891
95	0x3e140357	0.14454399
96	0xbec8112e	-0.39075607
97	0x3df4970f	0.11942875
98	0xbe906e4a	-0.28209144
99	0xbdfaee54	-0.12252489
100	0x3ebfcd63	0.37461385
101	0x3d1fe908	0.039040595
102	0xbe1d2fe8	-0.15350306
103	0xbf085f27	-0.5327019
104	0x3db422c4	0.087956935
105	0xbe9f7764	-0.31145775
106	0xbe0424ac	-0.12904614
107	0x3e672b3f	0.22575091
108	0xbe5cd144	-0.21564204
109	0xbd5d4db9	-0.0540292
110	0x3e496515	0.19667466
111	0xbe25f986	-0.16208467
112	0xbe982257	-0.297137
113	0x3e279b83	0.16367917
114	0x3e1e53f2	0.1546171
115	0x3d2adb77	0.041713204
116	0x3eae20c4	0.34009373
117	0x3cd38f27	0.025825096
118	0x3e86f28a	0.26356918
119	0xbe950b7e	-0.2911033
120	0xbd37523c	-0.04475616
121	0xbec7bf93	-0.39013347
122	0x3dcb69c7	0.09932285
123	0xbe297466	-0.16548309
124	0x3de2438c	0.1104804
125	0x3dd36526	0.10322027
126	0xbece7884	-0.4032632
127	0x3e8d2711	0.27568868
128	0x3e115b2e	0.14194939
129	0x3d92fc0f	0.071769826
130	0xbe87c84a	-0.26519996
131	0xbea96e8f	-0.33092162
132	0xbe72052e	-0.23634788
133	0x3da567c2	0.08076431
134	0x3de1a2fb	0.11017414
135	0xbecff008	-0.40612817
136	0x3e5ac165	0.21362837
137	0x3e0aa085	0.13537796
138	0x3e28bc74	0.16478139
139	0xbcecadc2	-0.028891448
140	0xbe61b412	-0.22041348
141	0x3dc6b700	0.09702873
142	0x3d2a09e2	0.04151333
143	0xbb9ef65d	-0.004851146
144	0x3e21efb4	0.15814096
145	0xbf1df108	-0.6169591
146	0xbe475ab5	-0.19468196
147	0xbebf549e	-0.37369245
148	0x3ecd83cc	0.40139616
149	0x3e34c55b	0.1765341
150	0xbeba2b23	-0.36361036
151	0x3e9fa100	0.3117752
152	0xbe9b2fdc	-0.3030995
153	0xbe80fdaa	-0.2519353
154	0x3e5d51ce	0.21613237
155	0xbe673c29	-0.22581543
156	0x3dd6ca08	0.10487753
157	0x3dca4989	0.09877307
158	0xbe8101e4	-0.25196755
159	0x3db716a9	0.08939869
160	0xbd082272	-0.033235975
161	0xbeb8cc9c	-0.36093605
162	0xbdd0f16a	-0.10202296
163	0xbe809f03	-0.25121316
164	0x3e3fd999	0.1873535
165	0xbec229e1	-0.37922576
166	0x3e72b72c	0.23702687
167	0x3f652d8d	0.8952263
168	0xbefdb586	-0.49552554
169	0x3e0b1e2f	0.13585733
170	0xbe917a97	-0.2841384
171	0xbe9f1417	-0.31070015
172	0x3e3c51f1	0.18390633
173	0xbe5f551e	-0.21809813
174	0xbe30f6f1	-0.172817
175	0xbe956989	-0.2918208
176	0xbe8c9394	-0.27456343
177	0x3e25e03f	0.16198824
178	0x3d91848d	0.0710536
179	0xbd44e060	-0.048065543
180	0xbde7998b	-0.11308583
181	0xbe618155	-0.22021993
182	0xbe15c562	-0.14626077
183	0x3e0963ca	0.13416973
184	0xbdd3b31f	-0.10336899
185	0xbcd4de53	-0.025984919
186	0x3e1fffa8	0.15624869
187	0x3dce295a	0.10066481
188	0x3e1af366	0.15131912
189	0x3dfb9a77	0.12285321
190	0xbe697a88	-0.22800648
191	0x3f0272ab	0.5095622
192	0x3cc0b716	0.023524802
193	0xbeaacf25	-0.33361164
194	0x3d89b99d	0.06724856
195	0x3e171e3a	0.14757624
196	0x3e1ff794	0.15621787
197	0xbeebdd73	-0.4606739
198	0xbea5e50b	-0.32401308
199	0x3e37a666	0.1793457
200	0xbe6cc164	-0.23120648
201	0xbe5de241	-0.2166834
202	0xbde212d0	-0.110387444
203	0xbe99aa39	-0.30012682
204	0x3df8df27	0.12151938
205	0xbe9a2dae	-0.30112976
206	0x3e7601a6	0.24024066
207	0xbe8b5128	-0.27210355
208	0x3d8e7cea	0.06957419
209	0xbe71a8d2	-0.23599556
210	0xbea4cde7	-0.3218834
211	0xbe6086c5	-0.2192641
212	0x3e38df3d	0.18053909
213	0x3e07d70c	0.13265628
214	0xbe4530c7	-0.19256888
215	0xbf194fd1	-0.59887415
216	0xbe9d5b2f	-0.3073363
217	0x3e631745	0.22176845
218	0xbdb8f9de	-0.090320334
219	0x3d1180d8	0.035523266
220	0xbea7eb9a	-0.32796937
221	0xbdc061c3	-0.093936466
222	0x3e4ec085	0.20190628
223	0x3d40cf61	0.047072772
224	0x3e8453b2	0.25845104
225	0xbe32a43e	-0.17445466
226	0xbe9a7dd0	-0.30174112
227	0xbe0e6921	-0.13907291
228	0x3e2b0544	0.16701227
229	0x3e2f1d7f	0.17101096
230	0xba85645d	-0.0010177005
231	0xbd80d047	-0.06289726
232	0x3db87c84	0.090081245
233	0x3d8f9bfe	0.07012175
234	0xbeabbeb8	-0.33543944
235	0xbe9f19fe	-0.31074518
236	0x3d67f413	0.05662925
237	0xbe531974	-0.20615178
238	0x3c42ed54	0.011897404
239	0xbe302503	-0.17201619
240	0xbe43293f	-0.19058703
241	0xbe89c5fd	-0.26908866
242	0xbe4f19ac	-0.20224637
243	0x3e1ea653	0.15493135
244	0xbd3d4cb8	-0.046215743
245	0x3e42bfe3	0.19018511
246	0xbdc8760c	-0.09788141
247	0xbea2771f	-0.31731507
248	0x3c82490c	0.015903972
249	0x3dd7082a	0.10499604
250	0x3d0f9ef0	0.035063684
251	0xbeb4fb44	-0.3534795
252	0x3df5bfd1	0.11999477
253	0x3dd0a3cd	0.101874925
254	0xbe90428f	-0.2817578
255	0xbe055fd7	-0.13024841

predicate_mlp1.bias f4 [256]
0	0xbe34bfd6	-0.17651305
1	0x3cb18817	0.021671338
2	0x3e68d6c1	0.22738172
3	0xbc5af902	-0.013365032
4	0xbe73fe52	-0.23827484
5	0x3e3609e3	0.17777209
6	0xbda22846	-0.07917838
7	0xbe9e314b	-0.30896983
8	0x3e57cf82	0.21075252
9	0x3b9fac4c	0.0048728343
10	0xbe6c883f	-0.23098849
11	0xbe674f01	-0.22588731
12	0x3ce0c355	0.027436892
13	0xbe45d9d6	-0.19321379
14	0xbe2a84d3	-0.16652231
15	0x3e436bbf	0.1908407
16	0x3e3150fc	0.1731605
17	0xbe884b06	-0.26619738
18	0xbc0b7be8	-0.008513428
19	0xbd26eb10	-0.040751517
20	0xbe707b86	-0.2348462
21	0x3e9b413b	0.30323204
22	0x3bbb1101	0.005708814
23	0xbe1f7234	-0.15570909
24	0x3df5a543	0.11994412
25	0x3e527248	0.20551407
26	0x3e64d16d	0.22345515
27	0x3d50af0e	0.050948195
28	0xbe8265ce	-0.25468296
29	0xbd093224	-0.033495083
30	0xbde368bf	-0.11103963
31	0x3cf2395b	0.029568365
32	0xbe9596ae	-0.29216522
33	0xbdd7f15f	-0.10544085
34	0xbc83613a	-0.016037572
35	0xbe60de3e	-0.21959779
36	0x3dd34da8	0.10317546
37	0xbe45bd67	-0.19310533
38	0xbea0d9a8	-0.3141606
39	0x3e2e366c	0.17012948
40	0x3ea4d793	0.3219572
41	0xbedc398a	-0.4301265
42	0xbc8cca20	-0.017186224
43	0xbe6eb0a8	-0.23309577
44	0x3e367d3a	0.17821208
45	0xbdc6f5f3	-0.0971488
46	0xbea97910	-0.33100176
47	0x3debebc9	0.11519582
48	0xbc95db5f	-0.01829308
49	0xbe22245a	-0.1583418
50	0xbe36814c	-0.1782276
51	0xbb0e6d92	-0.002173279
52	0xbe89fc5d	-0.2695035
53	0xbdd1f3cd	-0.102515794
54	0xbebcc109	-0.36866024
55	0x3e490c37	0.19633566
56	0x3e0eb775	0.13937171
57	0x3e1e612d	0.15466757
58	0xbdfc9eaa	-0.1233495
59	0xbe709fbc	-0.23498434
60	0xbda29edb	-0.079404555
61	0x3e0e81b1	0.13916661
62	0x3c8332d9	0.016015457
63	0x3e890f2a	0.26769382
64	0x3e9c32ba	0.3050745
65	0xbe4f357c	-0.20235246
66	0x3e3951c4	0.18097597
67	0x3d7484a9	0.059696827
68	0xbe7ef720	-0.24898958
69	0x3da5745c	0.080788344
70	0xbe811999	-0.25214842
71	0xbd7df5fc	-0.062002167
72	0x3e5a3b28	0.21311629
73	0xbe8db223	-0.2767497
74	0xbe910fd9	-0.28332403
75	0x3dc86be6	0.09786205
76	0xbe9c3350	-0.30507898
77	0xbdf4503f	-0.11929368
78	0x3e85cd83	0.26133355
79	0x3e7c9de9	0.24669613
80	0xbc46f729	-0.0121438885
81	0x3de2940a	0.110633925
82	0xbe54b2db	-0.20771353
83	0xbe9c3f1c	-0.305169
84	0xbdda6573	-0.10663881
85	0x3e37f4c9	0.17964472
86	0x3e8664f0	0.26248884
87	0xbd9ce99a	-0.076617435
88	0xbdbfbdb4	-0.09362355
89	0x3dd1d590	0.10245812
90	0x3c4de2cc	0.01256628
91	0x3d14e96c	0.03635542
92	0x3e38d28f	0.18049072
93	0x3ca76fa9	0.020438986
94	0xbdb5ab2d	-0.0887054
95	0xbdea513b	-0.11441275
96	0x3d2e91a2	0.042619355
97	0xbe72e934	-0.23721772
98	0xbe075ffe	-0.13220212
99	0x3e37a749	0.17934908
100	0x3e1cb207	0.15302287
101	0x3e5dacd6	0.21647963
102	0x3e22d7b6	0.159026
103	0xbe9a60b6	-0.3015191
104	0xbe5f46e0	-0.2180438
105	0xbe812b6a	-0.25228435
106	0xbe47a8a2	-0.19497922
107	0xbe021325	-0.12702616
108	0x3eb98a52	0.36238343
109	0xbd854aea	-0.06508429
110	0x3e94c863	0.29059133
111	0xbe388fb7	-0.18023573
112	0xbe947e49	-0.29002598
113	0x3dc38ed8	0.0954873
114	0x3deff7b3	0.11717167
115	0x3d85bd37	0.065302305
116	0x3c38d3f9	0.011281007
117	0xbe632062	-0.22180322
118	0x3df944f8	0.12171358
119	0x3e15f2ce	0.14643404
120	0xbe0b7df7	-0.1362227
121	0xbea3643c	-0.3191241
122	0x3d83f2d1	0.06442798
123	0x3e1cfcfa	0.15330878
124	0x3c2a6c2e	0.010401769
125	0x3c2654c4	0.010152046
126	0xbdf31e92	-0.11871065
127	0x3c8b6853	0.01701752
128	0x3d44b7b4	0.048026755
129	0xbdf0d2a3	-0.11758926
130	0x3dc57153	0.096407555
131	0x3e13232d	0.14368887
132	0x3dc24f4a	0.094877794
133	0x3e398b56	0.18119559
134	0x3e641e2c	0.22277135
135	0xbea11dad	-0.31467953
136	0xbe01b40e	-0.12666342
137	0x3ea8607a	0.32886106
138	0x3b0cc398	0.0021478888
139	0x3db54cd8	0.088525474
140	0xbd40daef	-0.04708379
141	0xbe7a5157	-0.24445091
142	0xbe10b52a	-0.14131609
143	0xbe36129a	-0.17780533
144	0xbcc53055	-0.024070898
145	0xbda7023a	-0.081547216
146	0xbcbeac52	-0.023275528
147	0x3d50600a	0.05087284
148	0xbe0fb3d3	-0.14033441
149	0xbe64ec8b	-0.22355859
150	0x3ec261d4	0.37965262
151	0xbe029984	-0.12753874
152	0xbe95cdee	-0.29258674
153	0xbe85765e	-0.2606687
154	0x3d59a421	0.05313504
155	0x3e21f8ed	0.15817614
156	0x3eb778b9	0.35834292
157	0x3e11c505	0.14235313
158	0xbe8d73d6	-0.27627438
159	0xbe8a0e24	-0.26963913
160	0x3e31f115	0.17377122
161	0x3bb43240	0.0054991543
162	0x3e359e23	0.17736106
163	0xbc85f9b0	-0.016354412
164	0xbec47557	-0.38370773
165	0xbe8b6e24	-0.27232468
166	0xbeaa7ad5	-0.33296838
167	0x3b23a20d	0.0024968416
168	0x3c0e6560	0.008691162
169	0x3e381c2a	0.17979494
170	0xbe96c676	-0.2944829
171	0xbe2283d5	-0.15870602
172	0xbea1bf7a	-0.31591398
173	0xbed29f03	-0.4113694
174	0xbd99f5fe	-0.075176224
175	0x3e96af3d	0.2943057
176	0xbe4c1114	-0.1992839
177	0xbd0430e4	-0.03227319
178	0xbd7e82c6	-0.062136434
179	0x3e762748	0.24038422
180	0xbcfea602	-0.031085018
181	0x3e56c86c	0.20974892
182	0x3db8b9ae	0.090197906
183	0xbe9e034c	-0.3086189
184	0xbd5f0a98	-0.054453462
185	0x3e58b8e2	0.21164277
186	0x3a7a1eea	0.000954135
187	0xbe07ae1f	-0.13250016
188	0xbe09c4f6	-0.13454041
189	0xbe52fa40	-0.20603275
190	0x3c970700	0.018435955
191	0xbea79de9	-0.32737663
192	0x3e0e8214	0.13916808
193	0x3dfe6040	0.12420702
194	0xbe9a7fae	-0.30175537
195	0xbeb41e93	-0.35179576
196	0xbd9d45c7	-0.076793246
197	0xbcba2d2a	-0.022726614
198	0xbbe9d44b	-0.007135903
199	0x3de380c4	0.111085445
200	0x3e936dcc	0.28794706
201	0x3bdb0505	0.006683948
202	0x3e02fa6d	0.12790842
203	0x3e8aa57f	0.27079388
204	0x3e92353f	0.2855625
205	0xbeb4106f	-0.35168788
206	0x3d84f7a1	0.06492544
207	0x3e9074e1	0.28214172
208	0xbe8fd042	-0.28088576
209	0x3e37c22b	0.17945163
210	0x3e7338eb	0.23752181
211	0x3dc23d3e	0.09484337
212	0x3e4242b4	0.18970758
213	0xbdcb3b0f	-0.09923374
214	0xbddb2426	-0.10700254
215	0x3e01e857	0.12686287
216	0x3df55b71	0.11980332
217	0x3e0e8cc2	0.13920882
218	0xbca1d9e0	-0.019757211
219	0xbe24d1ba	-0.1609563
220	0xbdce804b	-0.10083064
221	0x3d634ff9	0.05549619
222	0x3e24f8c6	0.16110525
223	0xbb9be881	-0.0047579412
224	0xbe9d8084	-0.30762112
225	0x3e3dc0e6	0.18530616
226	0x3de76231	0.112980254
227	0xbda57d31	-0.08080519
228	0x3cb1df59	0.021712946
229	0x3d21c9b8	0.039499015
230	0xbd1e0415	-0.03857811
231	0xbd40c64e	-0.047064118
232	0x3d056952	0.032571144
233	0x3e3730ca	0.17889705
234	0xbeb3077f	-0.34966657
235	0xbe835b09	-0.25655392
236	0xbeac29f8	-0.3362577
237	0xbcf50fb2	-0.02991471
238	0xbbeda133	-0.0072518825
239	0xbe74b9c1	-0.23898984
240	0xbdff251f	-0.12458252
241	0x3dd1b949	0.102404185
242	0xbe3741c8	-0.17896187
243	0x3e3831b3	0.17987709
244	0x3e0aaba5	0.1354204
245	0x3e0288fb	0.12747566
246	0xbe5d7110	-0.21625161
247	0x38d2a798	0.00010044797
248	0xbe4a3a3f	-0.19748782
249	0xbe4092e5	-0.18806036
250	0x3d1af9c3	0.037835848
251	0x3e4d356a	0.20039907
252	0xbe8e92ce	-0.27846378
253	0xbe7c8b0e	-0.2466242
254	0x3e2a8708	0.16653073
255	0xbdcfcafc	-0.10146138

predicate_mlp2.weight f4 [256, 256]
0	0x3b8566b1	0.0040710797
1	0x3d15ece7	0.03660288
2	0xbc63496c	-0.013872486
3	0x3d96340a	0.073341444
4	0xbd11be08	-0.03558162
5	0x3cb68e13	0.022284543
6	0xbd25ac12	-0.040447302
7	0xbc3ba7ce	-0.011453582
8	0xbdaeee80	-0.08541584
9	0xbd966383	-0.07343199
10	0xbd9da585	-0.07697586
11	0xbdb5469f	-0.088513605
12	0x3c8db8fc	0.017300121
13	0xbda78995	-0.081805386
14	0x3cfe5365	0.031045625
15	0xbda9f57e	-0.08298777
16	0xbd35b407	-0.04436114
17	0x3d59e967	0.053201105
18	0xbd720e3c	-0.059095606
19	0x3cfd12b4	0.030892707
20	0x3d9c8309	0.076421805
21	0x3bccd8b3	0.0062514185
22	0x3a5813f6	0.00082427205
23	0xbd74eb60	-0.059794784
24	0xbd76ad8a	-0.060224093
25	0xbd0fc5e3	-0.03510083
26	0xbd919b3e	-0.07109688
27	0x3c71f24a	0.014767239
28	0x3cc1bd60	0.023649871
29	0xbceeecc4	-0.029165633
30	0xbda5c537	-0.08094256
31	0x39d7c719	0.00041156335
32	0x3a5b1080	0.00083566457
33	0xbd49c6d5	-0.049261887
34	0xbcbebb90	-0.023282796
35	0x3c9d4cbf	0.019201634
36	0xbd995062	-0.07486035
37	0x3bf98330	0.0076145157
38	0x3d032a70	0.032022893
39	0xbc6d3f01	-0.014480353
40	0x3cd7690f	0.026295213
41	0x3c139fb1	0.009010241
42	0xbd8c6ea7	-0.06857043
43	0xbcb10bc8	-0.021612063
44	0x3d19bc92	0.03753335
45	0xbd7d4351	-0.061831776
46	0x3cbfbf4c	0.023406647
47	0x3cd0db28	0.025495127
48	0xbd564765	-0.05231418
49	0xbd80ab79	-0.06282706
50	0x3d555f90	0.05209309
51	0xbdbe36a1	-0.092877634
52	0x3d1bca8e	0.038034968
53	0xbca09ad2	-0.019605074
54	0xbcbd6956	-0.023121517
55	0xbd2e5d23	-0.04256929
56	0xbd9f4e82	-0.07778646
57	0x3d0c26c4	0.034216657
58	0xbd73eb3e	-0.059550516
59	0xbda930cb	-0.0826126
60	0x3cfc02e0	0.03076309
61	0xbd8b3210	-0.06796658
62	0xbd8772b6	-0.06613676
63	0xbc6923cc	-0.014229726
64	0x3a891537	0.0010458593
65	0xbc0b189d	-0.008489755
66	0xbd2044a2	-0.039127953
67	0x3cd120b6	0.025528293
68	0x3d4fa4a0	0.050694108
69	0xbd97f3e5	-0.07419566
70	0xbc127aa0	-0.008940369
71	0xbd263214	-0.040575102
72	0xbd2c656c	-0.04208891
73	0x3d54e309	0.05197433
74	0xbd385c64	-0.045009986
75	0x3d0f53be	0.034991972
76	0xbc83b280	-0.016076326
77	0xbdb9285c	-0.09040901
78	0x3c7b5c83	0.015341881
79	0xbbf4ae8d	-0.007467097
80	0x3c7dc475	0.015488734
81	0x3b2d7864	0.0026469463
82	0x3bbd3812	0.0057745064
83	0xbd53cbd5	-0.05170806
84	0x3cc5fe5f	0.024169145
85	0xbc504469	-0.012711623
86	0xbc857a10	-0.016293555
87	0xbc5fc9a3	-0.013658914
88	0xbdadc394	-0.08484569
89	0x3c86520c	0.016396545
90	0x3c8e0179	0.017334687
91	0xbb7d60d0	-0.003866244
92	0xbd7cbfda	-0.0617064
93	0xbdb2ac33	-0.08724251
94	0xbc9def8d	-0.019279266
95	0xbc36f972	-0.011167871
96	0x3cf42379	0.02980207
97	0x3d15bf5e	0.036559455
98	0xbcb98c81	-0.022650005
99	0xbd8556ab	-0.06510671
100	0xbd3179bb	-0.04332898
101	0xbd71b08c	-0.05900626
102	0xbd868736	-0.06568758
103	0xbcf9ce38	-0.03049384
104	0x3c6a3e08	0.014297016
105	0x3ccc6444	0.024950154
106	0xbd9bcf77	-0.0760793
107	0xbc695200	-0.014240742
108	0xbc4d88a3	-0.012544784
109	0xbd8d4664	-0.068981916
110	0xbcd02e33	-0.025412655
111	0xbd4a06a8	-0.049322754
112	0x3c025eb3	0.007957148
113	0xbc1471d5	-0.009060343
114	0x3c36034e	0.011109186
115	0x3d02f5b9	0.03197262
116	0xbcb4b138	-0.02205716
117	0xbbd08820	-0.0063638836
118	0xbd7e59d9	-0.062097404
119	0x3ce824e3	0.028337901
120	0x3ce2a0c0	0.027664542
121	0xbd922bea	-0.07137282
122	0x3cea97fd	0.028636927
123	0x3cedd78d	0.029033447
124	0xbd8ba941	-0.06819392
125	0xbd6645c8	-0.056218892
126	0xbd68794b	-0.0567563
127	0xbd37a753	-0.044837307
128	0x3c0910c3	0.008365813
129	0xbcdb2b3d	-0.026754016
130	0x3c4f9d02	0.012671711
131	0x3c39d8d3	0.011343199
132	0xbd3bd4ee	-0.045857362
133	0xbc4e4940	-0.012590706
134	0xbd909515	-0.07059685
135	0x3b0e05e0	0.0021670982
136	0xbcc97c88	-0.024595514
137	0xbdb411f0	-0.08792484
138	0xbcde13f3	-0.027109122
139	0x3c9e8d33	0.019354438
140	0x3c5cb06c	0.013469797
141	0xbd95b716	-0.073103115
142	0xbba911b0	-0.005159579
143	0x3d0678be	0.032829992
144	0xbcf2ac46	-0.029623162
145	0xbd5b755a	-0.053578712
146	0xbd2c5d95	-0.042081434
147	0x3bbcc2a1	0.0057605063
148	0xbcc8ef84	-0.024528272
149	0x3cf17373	0.029473996
150	0xbdabe2f9	-0.08392901
151	0x3ce49134	0.02790127
152	0xbdb2c1e0	-0.08728385
153	0xbcd681d1	-0.026184948
154	0x3c8ccf9f	0.017188845
155	0xbc993f55	-0.018706957
156	0xbd45874d	-0.048224736
157	0xbd4c402f	-0.049865898
158	0xbce1860c	-0.027529739
159	0xbd1e8209	-0.03869823
160	0xbcc25ddd	-0.023726398
161	0x3c267688	0.010160096
162	0xbd8c376e	-0.0684651
163	0x3d207c04	0.03918077
164	0x3cc9cb6e	0.024633136
165	0xbd59b10a	-0.053147353
166	0xbdb9c302	-0.09070398
167	0xbd9befaf	-0.076140754
168	0xbda2ec94	-0.0795528
169	0xbce1a1f0	-0.027543038
170	0xbd40197c	-0.046899304
171	0xbd10a572	-0.03531403
172	0x3d16d86e	0.036827497
173	0xbdae327a	-0.085057214
174	0xbdae03bd	-0.08496807
175	0x3c32357e	0.010877011
176	0x3c435488	0.011922009
177	0xbd9cdcb7	-0.076592855
178	0x3c8119bb	0.01575934
179	0xbda8a506	-0.08234601
180	0xbd096718	-0.033545583
181	0x39d0e8d7	0.0003984633
182	0x3b337d4a	0.002738791
183	0xbc052440	-0.008126318
184	0xbcb5787b	-0.022152176
185	0xbd15a0d9	-0.03653035
186	0xbc987192	-0.018608842
187	0xbda77791	-0.08177102
188	0xbd59b6f2	-0.053152986
189	0xbda3626a	-0.07977755
190	0x3b3b9b00	0.0028626323
191	0xbcca47b4	-0.024692394
192	0xbd364ec5	-0.044508714
193	0xbbd1e95c	-0.0064059924
194	0xbbcebb42	-0.006308944
195	0xbd293482	-0.04130984
196	0xbcaeba74	-0.021329142
197	0xbd94b7a9	-0.07261593
198	0x3b4dc004	0.0031394968
199	0x3c51b9f6	0.012800684
200	0x3d04a73d	0.032386053
201	0xbc5fbd89	-0.013656029
202	0xbb1b162f	-0.0023664345
203	0x3b4f864f	0.0031665748
204	0xbd8a826f	-0.067631595
205	0x3b16b500	0.0022996068
206	0xba74ab80	-0.0009333417
207	0xbd8be6bf	-0.06831121
208	0x3c2ef5fe	0.010678766
209	0xbd51af5a	-0.05119262
210	0xbbdfa5f8	-0.006825205
211	0x3adc6ce2	0.0016817118
212	0x3cebcbf7	0.028783781
213	0x3d026159	0.03183112
214	0x3d678f2a	0.056533016
215	0xbb254486	-0.0025217845
216	0xbd999edc	-0.07501003
217	0xbd0e70aa	-0.034775414
218	0xbbe0b3b0	-0.006857358
219	0x3c11d6a7	0.008901275
220	0xbc871282	-0.016488317
221	0x3b66819f	0.0035172475
222	0xbd4c1de0	-0.04983318
223	0xbcc7bedc	-0.024383001
224	0xbc947e60	-0.018126667
225	0xbd2c88d9	-0.042122696
226	0xbda3f1ec	-0.08005127
227	0xbd309e1a	-0.043119527
228	0x3ca5b7d7	0.020229263
229	0xbcf0c01d	-0.029388482
230	0xbd83ef87	-0.064421706
231	0xbdb62004	-0.08892825
232	0xbc9f42fe	-0.019441124
233	0xbd2ff8cd	-0.042961884
234	0x3d6277e6	0.055290125
235	0x3b2c0440	0.002624765
236	0xbd524148	-0.05133179
237	0xbc2c1ec4	-0.010505382
238	0xbd8e210f	-0.06939899
239	0xbca310fe	-0.019905563
240	0xbd4a804a	-0.049438752
241	0xbd6f5202	-0.058427818
242	0xbc4f0188	-0.012634642
243	0xbd410826	-0.04712691
244	0xbda8cf70	-0.082426906
245	0xbd77d38e	-0.06050449
246	0x3d74c172	0.059754796
247	0x3ce96598	0.028490826
248	0x3d343e20	0.04400456
249	0xbdade41a	-0.084907725
250	0xbc1ca9a8	-0.009561934
251	0x3cecafdd	0.028892452
252	0x39c32b72	0.00037225668
253	0x3d4dffb0	0.05029267
254	0x3b7f6960	0.003897272
255	0x3ce10320	0.02746731

predicate_mlp2.bias f4 [256]
0	0xbda32a11	-0.07967008
1	0xbcd2e252	-0.025742684
2	0x3a8e5abb	0.001086078
3	0xbb1c52b9	-0.0023853017
4	0xba3bad1f	-0.0007159281
5	0xbd82e189	-0.06390674
6	0x3d08f8e8	0.0334405
7	0xbb107c1d	-0.0022046634
8	0xbd6c4e94	-0.057692125
9	0x3cb86efd	0.02251386
10	0x3bcf22b6	0.0063212765
11	0x3c6bddfb	0.014396186
12	0xbb232576	-0.0024894155
13	0xbcca7ce6	-0.02471776
14	0xbcd63063	-0.02614612
15	0xbd42faf5	-0.047602613
16	0x3d983335	0.07431642
17	0x3d8987c5	0.06715349
18	0x3d9fcf7b	0.07803246
19	0xbcfec9dc	-0.031102113
20	0x3c1ca1eb	0.009560089
21	0xbdafc1ec	-0.085819095
22	0x3d88ed44	0.0668588
23	0x3dbddf02	0.09271051
24	0x3c9a4e12	0.018836055
25	0x3db8a293	0.090153836
26	0xbb6f573c	-0.0036520502
27	0x3c0c489c	0.008562233
28	0x3bf7f7ee	0.0075673973
29	0xbd3675f3	-0.04454608
30	0x3d38bd06	0.04510214
31	0xbda03348	-0.07822281
32	0x3c81c689	0.01584174
33	0x3d56ed6d	0.05247252
34	0xbbcd35bf	-0.0062625105
35	0xbbabd3ff	-0.0052437778
36	0x3c32d1a6	0.010914242
37	0x3a864688	0.0010244409
38	0xbd50c90a	-0.050972976
39	0xbccb8249	-0.024842398
40	0xbd9a22f9	-0.07526202
41	0xbc780f3b	-0.01514035
42	0xbd87bbf8	-0.06627649
43	0xbc94690c	-0.018116497
44	0x3d0a4953	0.033761334
45	0x3d3b93ef	0.045795377
46	0xbd20a587	-0.03922036
47	0xbc974fd4	-0.018470682
48	0xbad7ef6d	-0.0016474553
49	0xbb20ef53	-0.002455671
50	0xbd9ca1ae	-0.076480255
51	0xbd6e72bc	-0.058214888
52	0x3b71c8dd	0.0036893405
53	0x3d2102fc	0.039309487
54	0xbcfdc50b	-0.030977746
55	0x3c713c84	0.014723901
56	0x3bef7ca8	0.0073085614
57	0x3cc0d8b5	0.023540834
58	0xbd80b0fc	-0.06283757
59	0xbd2c202d	-0.042022873
60	0xbc2faf8b	-0.010723005
61	0xbd4723f3	-0.04861827
62	0xba8fbe55	-0.0010966758
63	0x3d40be2e	0.04705637
64	0x3d9226b9	0.07136292
65	0xbd5807f4	-0.05274196
66	0x3cdf5692	0.02726296
67	0xbcca640d	-0.024705911
68	0x3ce86383	0.028367763
69	0x3d2f583a	0.04280875
70	0x3d6667f9	0.0562515
71	0xbd5538ce	-0.052056126
72	0xbb470f19	-0.003037399
73	0x3c768aea	0.015047768
74	0xbcc6d6e2	-0.024272386
75	0x3c8251f9	0.015908228
76	0xbce78ae9	-0.02826448
77	0x3cb602a2	0.022218052
78	0xbd917c8b	-0.07103833
79	0x3d1a5808	0.03768161
80	0xbd5b531e	-0.053546064
81	0x3df27917	0.11839502
82	0xb84d61fe	-4.896707e-05
83	0x3d18053e	0.037114374
84	0xbca09e98	-0.019606873
85	0x3a7f78b8	0.00097454665
86	0x3d8df8e8	0.06932241
87	0xbd915e4b	-0.07098063
88	0xbd750c7e	-0.059826367
89	0x3bcff14e	0.0063459044
90	0xbda8e3d4	-0.0824658
91	0x3d8093ab	0.062781654
92	0xbd4c4a99	-0.04987583
93	0x3d2290e0	0.039688945
94	0xbd00b0cb	-0.031418603
95	0x3e16af9a	0.14715424
96	0x3d893e7e	0.067013726
97	0x3cdea6d3	0.027179157
98	0x3d101e4f	0.035185155
99	0x3e349b53	0.17637376
100	0xbd1e541d	-0.038654435
101	0xbd82dedd	-0.06390164
102	0xbc02f31e	-0.007992534
103	0xbc51e554	-0.012811024
104	0xbda7c88d	-0.08192549
105	0xbbe3b89e	-0.0069494983
106	0x3c81c99d	0.015843207
107	0xbb8ba522	-0.0042616287
108	0x3d6ceef0	0.057845056
109	0x3d06d920	0.03292191
110	0xbc3d7d7b	-0.011565561
111	0xbc9e4338	-0.019319162
112	0x3dc50472	0.096199885
113	0x3be77878	0.0070639215
114	0x3dbb949e	0.09159206
115	0xbd92f8b4	-0.071763426
116	0x3d4bd67e	0.049765103
117	0xbcac012b	-0.02099665
118	0xbc0c448c	-0.008561265
119	0x3cff369e	0.031153973
120	0x3d01bce9	0.0316743
121	0xbd9ab5b1	-0.07554186
122	0x3dc6fddd	0.09716389
123	0xbb7c5221	-0.00385011
124	0xbdaaa580	-0.08332348
125	0xbcfd7011	-0.030937226
126	0xbd0439df	-0.032281753
127	0x3bacc32e	0.0052722907
128	0x3d3af7a2	0.045646317
129	0xbd16fd3f	-0.036862608
130	0xbd77948e	-0.060444407
131	0xbd9d1518	-0.07670039
132	0x3d309d40	0.043118715
133	0x3d23434e	0.03985911
134	0x3c41dd9f	0.011832624
135	0xbb416707	-0.0029510872
136	0x3ce592a3	0.028024023
137	0xbcc54c0f	-0.02408412
138	0xbd9ab5d6	-0.07554214
139	0xbc5b7dd8	-0.013396703
140	0xbc5f36b3	-0.013623881
141	0x3dcd8643	0.10035374
142	0xbd5be502	-0.053685196
143	0xbd20b547	-0.03923538
144	0x3afb18d9	0.0019157185
145	0xbd7710fa	-0.060318924
146	0xbda38fd0	-0.079864144
147	0x3d9bb224	0.07602337
148	0x3dd812b0	0.10550439
149	0x3d0614e3	0.032734763
150	0x3cf7d43a	0.030252565
151	0x3d81b610	0.06333554
152	0xbc3c40e4	-0.0114900805
153	0xbd6abd39	-0.057309363
154	0x3c489be9	0.012244203
155	0xbd5344e5	-0.051579375
156	0xbd13e7b7	-0.036109652
157	0x3dd6a128	0.10479957
158	0xbca2d2b2	-0.019875858
159	0x3d4c0f1f	0.049819108
160	0xbcfa93c3	-0.030588036
161	0x3bedb2fe	0.0072540035
162	0x3c29cd60	0.010363907
163	0x3d88ed11	0.06685842
164	0x3bdc3a8f	0.006720848
165	0xbd1ac4da	-0.03778539
166	0x39d8fde6	0.000413879
167	0x3de7d636	0.11320154
168	0x3cb12e91	0.02162865
169	0xbcde619d	-0.027146155
170	0xbba24230	-0.004951738
171	0xbb92afe2	-0.0044765333
172	0x3d0cffb1	0.034423534
173	0xbcac9d1f	-0.021071015
174	0xbd1ab6b7	-0.037771907
175	0xbde3e548	-0.11127716
176	0xbd35e651	-0.0444091
177	0x3b71c497	0.0036890858
178	0x3c9b3092	0.018944059
179	0xbdb56326	-0.08856802
180	0x3d6338b6	0.055474006
181	0xbb87c0fe	-0.0041428795
182	0xbce4530b	-0.02787163
183	0xbca7d8aa	-0.020489056
184	0x3cc8cfd4	0.024513163
185	0xbd5ee693	-0.05441911
186	0x3b374b72	0.0027968553
187	0xbcbaea43	-0.022816783
188	0xbac01875	-0.0014655726
189	0x3da04dfb	0.078273736
190	0x3d59312f	0.05302542
191	0x3e0b0981	0.13577844
192	0x3da6b97c	0.08140847
193	0xbac8db4c	-0.0015324145
194	0x3d9b87d7	0.07594269
195	0x3d414113	0.0471812
196	0x3da91ce3	0.08257463
197	0x3ccd6da7	0.0250767
198	0xbc9634f3	-0.018335795
199	0x3d5e8dd1	0.054334465
200	0x3d45f879	0.048332665
201	0xbc7466fc	-0.0149171315
202	0x3db925b4	0.090403944
203	0xbe16ef1b	-0.14739649
204	0x3bdcebea	0.0067419903
205	0xbbfaaeef	-0.0076502482
206	0xbc3eb64a	-0.011640141
207	0x3c5bcd93	0.013415712
208	0xbcacdb43	-0.021100646
209	0xbc8c758d	-0.017145896
210	0x3d8347c6	0.06410174
211	0x3cd7c3d1	0.02633849
212	0x3d898665	0.06715087
213	0x3c8f506b	0.017494401
214	0x3c83ff7c	0.016113035
215	0xbce1c455	-0.027559439
216	0x3c9921b2	0.018692825
217	0x3c360337	0.011109165
218	0xbc1c69c8	-0.009546705
219	0x3bc69f42	0.0060614655
220	0xbd260cdd	-0.04053961
221	0xbd170910	-0.036873877
222	0x3c965a15	0.018353501
223	0xbd401a76	-0.046900235
224	0x3d345b32	0.044032283
225	0xbcc8d8d6	-0.024517458
226	0xbd930896	-0.07179372
227	0xbc9cc6e0	-0.0191378
228	0xbcd20d7c	-0.025641195
229	0xbd6b80b7	-0.0574958
230	0x3d87cc36	0.06630747
231	0x3c08b6e9	0.00834439
232	0xbd062cec	-0.032757685
233	0xbcda39b2	-0.02663884
234	0x3d8d9d69	0.06914789
235	0x3a955861	0.0011394137
236	0x3c2da46b	0.010598282
237	0x39812c48	0.0002463779
238	0xbcbac707	-0.022799982
239	0xbbf0345b	-0.00733046
240	0x3d5d818c	0.054078624
241	0xbc0a8df8	-0.0084567
242	0x3d2a1298	0.04152164
243	0x3cb534e6	0.02211995
244	0x3c9ac9c9	0.018895047
245	0xbca3e55a	-0.020006824
246	0x3c6f9ab1	0.014624284
247	0xbcb947dc	-0.022617273
248	0xbd95d75e	-0.07316469
249	0xbcd295b0	-0.025706142
250	0xbd966e99	-0.073453136
251	0x3d8e3b35	0.069448866
252	0x3ddf28d7	0.108964615
253	0x3d9ad238	0.07559627
254	0x3cbe304f	0.023216395
255	0x3be85c96	0.007091115

out_mlp1.weight f4 [256, 256]
0	0xbd8e53e9	-0.06949598
1	0xbda5bc7d	-0.08092592
2	0xbe4d00b7	-0.20019804
3	0x3d61cec4	0.055128828
4	0x3d8bf41c	0.068336695
5	0xbd3e9718	-0.046530813
6	0xbe7c9d96	-0.2466949
7	0xbd91d399	-0.07120437
8	0xbd63e6f4	-0.055640176
9	0xbaaa7942	-0.0013006108
10	0xbda744c0	-0.0816741
11	0xbc22e8cf	-0.009943201
12	0x3d1e2f35	0.03861924
13	0x3c1defe1	0.009639711
14	0xbc86f4b7	-0.016474111
15	0xbd45cdd2	-0.04829199
16	0x3de71b44	0.112844974
17	0xbdd0299b	-0.101641856
18	0x3daf6725	0.08564595
19	0xbd1d7fe2	-0.038452037
20	0x3c996615	0.018725434
21	0x3c9db32b	0.019250473
22	0x3cd203f7	0.025636656
23	0x3e38bb66	0.18040237
24	0x3c8fd46b	0.017557343
25	0x3d705913	0.058678698
26	0xbc1fdc4e	-0.009757115
27	0x3d7658ba	0.06014321
28	0x3e10ea5d	0.14151902
29	0xbb0bbcf0	-0.0021322332
30	0x3dadca74	0.084858805
31	0xbe3b74f2	-0.1830633
32	0xbb9d5c79	-0.0048022834
33	0x3c593adb	0.013258661
34	0x3dc5f2dc	0.096654624
35	0xbdc8259d	-0.09772799
36	0xbca67669	-0.020320134
37	0xbd492e86	-0.049116634
38	0x3d676446	0.056492113
39	0x3e0a435a	0.13502255
40	0x3d27a847	0.040931966
41	0xbbfb7de1	-0.007674918
42	0xbcdddb80	-0.027082205
43	0x3be6b416	0.007040511
44	0x3e75dbf5	0.24009688
45	0x3d213bc7	0.03936365
46	0x3e47956b	0.19490592
47	0xbcd50533	-0.026003456
48	0xbd12c896	-0.035835825
49	0xbd22512c	-0.039628193
50	0xbdaf1e79	-0.08550734
51	0x3dee51f1	0.11636723
52	0xbd129940	-0.03579068
53	0x3d235d31	0.039883796
54	0xbda70ed1	-0.08157123
55	0x3c169b0e	0.009192241
56	0x3db22685	0.08698753
57	0xbebd0346	-0.3691656
58	0xbd62dde6	-0.0553874
59	0x3d3b4ee5	0.045729537
60	0x3d33f47b	0.043934327
61	0xbdcb6e13	-0.09933104
62	0xbe4ebab4	-0.20188409
63	0xbe00e74e	-0.12588236
64	0x3e138090	0.14404511
65	0x3a57f257	0.00082377106
66	0x3d481319	0.048846338
67	0xbd3cad99	-0.046063993
68	0x3de6d49a	0.11271019
69	0xbd7d27d9	-0.06180558
70	0x3e14a278	0.14515102
71	0xbd4cc760	-0.049994826
72	0x3e59c421	0.21266223
73	0xbd796f72	-0.0608973
74	0x3c01300e	0.007884992
75	0x3d466833	0.048439216
76	0x3d9515ab	0.072795235
77	0x3d9c63b2	0.07636203
78	0xbd297080	-0.041367054
79	0x3d473612	0.04863555
80	0x3cad8ed8	0.021186277
81	0x3e823344	0.25429738
82	0x3ea64221	0.32472327
83	0xbd4164cf	-0.04721528
84	0xbe4aaea8	-0.19793189
85	0xbdca2498	-0.09870261
86	0x3e324d53	0.1741231
87	0xbce98b9a	-0.02850895
88	0xbb5af2c0	-0.003340885
89	0xbcdae25a	-0.026719261
90	0xbcfb85d6	-0.030703466
91	0xbe050206	-0.12989053
92	0xbd3e74ba	-0.046498038
93	0xbe160264	-0.1464935
94	0xbd01f80f	-0.031730708
95	0xbdeec6cd	-0.11659012
96	0xbd6090ac	-0.05482547
97	0xbc87220e	-0.01649573
98	0x3d232125	0.03982653
99	0x3f0b4124	0.5439627
100	0xbc851e9c	-0.016249947
101	0xbba22f6c	-0.004949501
102	0x3c698eff	0.014255284
103	0xbcd016af	-0.025401441
104	0xbc8f9c4d	-0.017530585
105	0x3df5a640	0.119946
106	0x3d4ab09a	0.049484827
107	0xbd26fa78	-0.04076621
108	0x3e902327	0.2815182
109	0xbcdf6b07	-0.027272714
110	0xbc303775	-0.0107554095
111	0x3d2843f3	0.041080426
112	0xbe66f282	-0.22553447
113	0x3d9a8b5d	0.07546113
114	0xbe65e0de	-0.22449061
115	0x3d933016	0.07186906
116	0x3cbe24e7	0.023210956
117	0xbcee6fec	-0.029106103
118	0x3ef70dd0	0.48252726
119	0x3dd5bda7	0.10436564
120	0x3d0bb2fc	0.03410624
121	0xbd37087f	-0.044685837
122	0x3ea3c255	0.319842
123	0xbcbe3fae	-0.023223724
124	0xbd890eb3	-0.06692257
125	0x3d410301	0.047122005
126	0xbdb90526	-0.09034185
127	0x3cc1c716	0.023654502
128	0x3b58c84f	0.0033078378
129	0xbc13e01e	-0.009025602
130	0x3ca63a72	0.02029154
131	0x3d5e0b49	0.05420998
132	0xbe7cd935	-0.24692233
133	0x3d95574a	0.0729204
134	0x3d03e172	0.032197423
135	0x3d1e7efe	0.038695328
136	0x3d336971	0.04380173
137	0x3d575782	0.05257369
138	0xbbc5ab5d	-0.006032391
139	0x3d8b1f30	0.06793058
140	0x3d75c1ce	0.05999928
141	0x3e50306f	0.20330976
142	0x3c53ff33	0.012939262
143	0x3dabeea3	0.08395126
144	0x3d341570	0.043965757
145	0x3d87829d	0.066167094
146	0x3d6a2847	0.057167318
147	0xbd252152	-0.04031498
148	0x3d7ed2ce	0.062212758
149	0xbcba6660	-0.022753894
150	0x3dbb0838	0.09132427
151	0x3e536075	0.20642264
152	0x3d37074f	0.044684704
153	0xb9d2df9a	-0.00040220917
154	0x3eb3618e	0.35035366
155	0xbd4ea2a3	-0.05044807
156	0x3cc4ea65	0.02403755
157	0x3e023471	0.12715317
158	0x3b0504fe	0.0020297165
159	0x3da66358	0.08124417
160	0xbcc31d32	-0.023817632
161	0xbd2d10d5	-0.04225238
162	0x3d3ffaab	0.046869915
163	0x3d5354d1	0.05159456
164	0xbb8e53e6	-0.0043434976
165	0xbd567411	-0.052356783
166	0x3c3d4f15	0.011554499
167	0x3da33d26	0.079706475
168	0xbc774719	-0.015092635
169	0x3c46fc1e	0.01214507
170	0x3d43f95e	0.047845237
171	0xbc34a7dc	-0.011026349
172	0xbd656a5e	-0.056009643
173	0x3d124295	0.03570803
174	0xbd928cb6	-0.07155745
175	0xbd87b1c5	-0.06625704
176	0xbec58049	-0.38574436
177	0x3dc05981	0.093920715
178	0xbdee8258	-0.11645955
179	0x3ccd6cde	0.025076326
180	0x3dbe5af7	0.09294694
181	0x3e045d0f	0.12926124
182	0xbd393b1c	-0.045222387
183	0xbd116fd1	-0.035507027
184	0x3d213321	0.0393554
185	0xbc8e83ae	-0.017396774
186	0xbce0dc82	-0.027448896
187	0xbd875348	-0.066076815
188	0xbcdd93ba	-0.02704798
189	0x3e1918e0	0.14950895
190	0x3e6a4f0e	0.2288172
191	0x3dbd70e5	0.092500485
192	0x3ed76016	0.42065495
193	0x3c011617	0.007878802
194	0x3dd9f545	0.106424846
195	0x3d82f913	0.063951634
196	0xbd9a27c4	-0.07527116
197	0x3e054b7c	0.13017076
198	0x3d0480d9	0.03234944
199	0x3e016acc	0.12638396
200	0xbdeafc10	-0.11473858
201	0xbe4e9905	-0.2017556
202	0x3d56ffa2	0.052489884
203	0xbe62b557	-0.22139488
204	0x3ceca953	0.028889334
205	0x3d04f3b6	0.032458983
206	0x3bf5901e	0.0074939867
207	0x3d588c4d	0.052868176
208	0x3ad59ec8	0.0016297931
209	0xbd63d3b0	-0.055621803
210	0xbcea5431	-0.028604599
211	0xbd9e908c	-0.07742414
212	0x3e2c6ac5	0.16837604
213	0x3cc1bb12	0.023648772
214	0xbd3d1838	-0.046165675
215	0x3d73c4ea	0.059513964
216	0x3d11ee7a	0.03562782
217	0x3d864cbe	0.06557606
218	0x3dc4dd2b	0.09612497
219	0xbe0b5a86	-0.1360875
220	0x3ce63e41	0.028105857
221	0xbc0d0113	-0.008606213
222	0x3cfbd101	0.03073931
223	0xbd154e2b	-0.0364515
224	0x3de9283d	0.11384628
225	0x3c35e653	0.011102277
226	0xbdaa671b	-0.08320447
227	0x3cecbdc2	0.028899077
228	0x3e11d6f1	0.1424215
229	0xbd0528ee	-0.032509737
230	0x3e0d457f	0.13796042
231	0x3d2c2591	0.042028014
232	0xbe09f2fb	-0.13471596
233	0x3906faa1	0.00012872602
234	0xbd84bdb4	-0.064814955
235	0xbd30dffd	-0.043182362
236	0xbc8863a4	-0.016649075
237	0x3d90703e	0.070526585
238	0xbb7078f1	-0.003669318
239	0x3d90f837	0.07078593
240	0xbde7ff78	-0.11328024
241	0x3d509b4c	0.050929353
242	0xbd0715ec	-0.03297989
243	0x3d316cb3	0.043316554
244	0x3d2c3ba2	0.042049058
245	0x3cb40dcb	0.021979233
246	0x3d532502	0.051548965
247	0xbe36a66c	-0.17836922
248	0x3c062036	0.008186391
249	0x3c5d53d9	0.01350876
250	0xbba65a41	-0.005076677
251	0xbd815cc4	-0.06316522
252	0x3d4fc775	0.050727326
253	0xbcb2b29c	-0.021813683
254	0xba685d40	-0.0008863993
255	0xbccf095f	-0.025273023

out_mlp1.bias f4 [256]
0	0x3d315a65	0.043299098
1	0x3d9d5b8e	0.07683478
2	0xbca4e0e5	-0.02012677
3	0x3cba4fb1	0.022743078
4	0x3d3023af	0.04300278
5	0xbc41bff1	-0.011825548
6	0xbd8a2a08	-0.06746298
7	0xbd07069c	-0.032965288
8	0xbd7e7b4f	-0.062129315
9	0xbc8e9617	-0.017405553
10	0x3e0bddc8	0.13658822
11	0xbc6e315d	-0.014538136
12	0x3d113014	0.03544624
13	0xbdb8430a	-0.08997162
14	0xbc912e1d	-0.017722184
15	0xbd4b2f35	-0.049605567
16	0x3d664c2e	0.056224994
17	0xbbcadba9	-0.0061907363
18	0xbd848c55	-0.06472079
19	0x3d763d20	0.060116887
20	0x3de84b6e	0.11342512
21	0xbd4c5425	-0.049884934
22	0x3c0a4f95	0.008441825
23	0xbdafd16f	-0.08584868
24	0x3dc1f30b	0.09470185
25	0xbc15fdd8	-0.009154759
26	0xbdae6360	-0.08515048
27	0x3dcdcf3d	0.10049293
28	0xbdaadce6	-0.08342914
29	0xbdb38328	-0.087652504
30	0xbd728839	-0.059211943
31	0x3d2417b3	0.040061664
32	0xbd81320d	-0.063083746
33	0xbda469a7	-0.08027964
34	0xbc215dc0	-0.009849012
35	0xbc1cc678	-0.009568803
36	0xbbfa5dc7	-0.0076405737
37	0xbd63e721	-0.055640344
38	0xbdaa5fc1	-0.08319045
39	0xbd5fef42	-0.054671533
40	0xbdbeda5f	-0.09318995
41	0xbd463484	-0.048389927
42	0xbd0e53ce	-0.03474789
43	0x3d50e810	0.051002562
44	0xbd4e6d98	-0.050397485
45	0xbd8c907c	-0.06863496
46	0xbd66131c	-0.056170568
47	0xbd859b7e	-0.065237984
48	0x3be0ec9f	0.006864145
49	0x3d0c4528	0.03424564
50	0x3d323a11	0.043512408
51	0xbda93b70	-0.0826329
52	0xbd2c2864	-0.042030707
53	0xbc4fa43e	-0.012673436
54	0xbd0662cb	-0.03280906
55	0xbca3b9bb	-0.019986024
56	0xbd8f37cf	-0.069930665
57	0xbbdb0516	-0.006683956
58	0x3d0a5b38	0.0337784
59	0x3d83e2f8	0.06439775
60	0x3d8c7da7	0.06859904
61	0xbd5687dc	-0.05237566
62	0xbd8e262d	-0.06940875
63	0x3dd2f2ab	0.103001915
64	0x3dd5d87d	0.104416825
65	0xbcfc881b	-0.030826619
66	0x3dd9b701	0.10630608
67	0x3c1a1bda	0.009406054
68	0xbd407f26	-0.04699626
69	0x3dd2c9d3	0.10292401
70	0x3cdca00b	0.026931783
71	0x3c95b707	0.01827575
72	0xbd4b5be3	-0.049648177
73	0x3bf49d32	0.007465028
74	0xbcd6376c	-0.026149474
75	0x3c04e1c7	0.00811047
76	0x3d15e9bf	0.03659987
77	0xbd1876de	-0.037222736
78	0xbcf8a5d6	-0.030352514
79	0xbc9eb7df	-0.019374786
80	0xbd5e1a6c	-0.054224417
81	0x3dcadf82	0.09905912
82	0xbd88dafb	-0.06682392
83	0x3db5691f	0.08857941
84	0x3d331264	0.04371871
85	0xbd224c3a	-0.039623477
86	0xbd0b6f56	-0.034041725
87	0xbce92c96	-0.028463643
88	0x3cf30539	0.029665576
89	0xbb2a8b2e	-0.00260229
90	0x3cf1c1bb	0.029511323
91	0xbd543c81	-0.051815514
92	0xbce7fa8b	-0.02831771
93	0x3bdc8209	0.0067293686
94	0xbbf09342	-0.0073417732
95	0x3d49722e	0.049181156
96	0x3c47f217	0.012203715
97	0x3e0db0b8	0.13836944
98	0x3d819478	0.06327146
99	0x3cb0d39a	0.021585274
100	0xbcbc000b	-0.02294924
101	0x3de09335	0.109655775
102	0xbdae49a1	-0.08510137
103	0x3de003b1	0.10938204
104	0xbd6259e0	-0.055261493
105	0x3de7ddb8	0.11321586
106	0xbd58e5c5	-0.0529535
107	0x3cdde96a	0.02708884
108	0x3df1f5df	0.11814474
109	0x3c8402a3	0.016114539
110	0x3c85ab0a	0.01631691
111	0xbd0d1fe1	-0.03445423
112	0x3a5e49a7	0.0008479603
113	0xbd75ce28	-0.06001106
114	0xbd23f93c	-0.04003261
115	0xbd8c8159	-0.068606086
116	0x3c4f68cc	0.012659263
117	0xbd88dc70	-0.0668267
118	0x3cb92a8d	0.022603298
119	0xbc35204e	-0.011055065
120	0xbc563542	-0.013074221
121	0xbd2718d9	-0.04079518
122	0x3da33960	0.07969928
123	0x3c07238a	0.008248219
124	0xbdaac806	-0.08338933
125	0x3df333f0	0.11875141
126	0xbdb0b630	-0.086284995
127	0xbbf65667	-0.007517624
128	0xbcc7c6dc	-0.024386816
129	0x3d83fcc9	0.06444699
130	0x3cae43f7	0.021272643
131	0xbd5b1192	-0.053483553
132	0x3d5b4aa0	0.053537965
133	0x3cf91d18	0.03040938
134	0x3d861ebb	0.0654883
135	0x3def881a	0.11695881
136	0x3c3ee15b	0.011650409
137	0xbdab5af4	-0.08366957
138	0xbcc4411c	-0.023956828
139	0xbe01b493	-0.1266654
140	0xbda5f6e2	-0.0810373
141	0xbd1e08f8	-0.038582772
142	0xbd94c7d5	-0.072646774
143	0xbdab94b0	-0.08377969
144	0x3ce3039f	0.027711688
145	0x3e19d85a	0.15023938
146	0xbb4b4e8d	-0.0031022162
147	0xbd86acca	-0.06575926
148	0xbbfd86d0	-0.007737018
149	0xbb26779b	-0.002540088
150	0x3d14edd3	0.03635962
151	0xbd92c57a	-0.07166572
152	0x3d6c4274	0.057680562
153	0x3c95c56f	0.01828262
154	0xbceb2574	-0.028704382
155	0xbcfe742a	-0.03106125
156	0xbc790a4b	-0.015200208
157	0x3dd6337e	0.1045904
158	0xbd2aec03	-0.041728985
159	0xbcaa84fd	-0.020815367
160	0xbcebfa8e	-0.028805997
161	0x3d11b85a	0.035576202
162	0x3de91887	0.11381631
163	0xbd773d5d	-0.060361255
164	0xbd8f2ee1	-0.06991363
165	0xbd4045e1	-0.04694164
166	0xbd81ef45	-0.06344465
167	0x3c38a28e	0.011269225
168	0xbbb1ea91	-0.005429574
169	0xbd35c7e4	-0.044380084
170	0xbd06b94a	-0.03289155
171	0x3c6bc2ae	0.014389677
172	0xbd99dcf2	-0.07512845
173	0xbb2f3b68	-0.002673829
174	0x3c14a01c	0.009071376
175	0xbd6c88fe	-0.057747833
176	0xbdaf4ce3	-0.08559587
177	0x3de75d66	0.11297111
178	0x3b417d3c	0.0029524108
179	0xbd8e0dbb	-0.06936213
180	0x3dc6b29d	0.097020365
181	0x3df98887	0.12184244
182	0x3d939dfa	0.07207866
183	0x3cae750f	0.021296052
184	0x3d99a8e1	0.07502914
185	0x3d182e64	0.037153617
186	0x3d9d6486	0.07685189
187	0xbcbceae9	-0.023061233
188	0x3dc70011	0.097168095
189	0xbd647770	-0.055777967
190	0x3c453a80	0.012037873
191	0xbd93cea3	-0.07217147
192	0xbc931360	-0.017953575
193	0xbd8393ed	-0.06424699
194	0x3de13c1d	0.10997794
195	0xbd50baea	-0.050959505
196	0x3de0d393	0.109778546
197	0x3e03e423	0.12879996
198	0xbcf6a4b9	-0.030107843
199	0xbb9d46a8	-0.0047996826
200	0xbc4e0429	-0.012574234
201	0xbdbc540e	-0.0919572
202	0xbda1d7fd	-0.079025246
203	0xbcdfa5e7	-0.027300788
204	0xbd36d8ed	-0.04464047
205	0x3dd01a08	0.10161215
206	0x3d57e7b4	0.052711204
207	0xbd48dfd3	-0.04904158
208	0x3cd93c04	0.026517875
209	0x3d710a8f	0.05884796
210	0xbd4a1883	-0.049339782
211	0x3e0446e5	0.12917669
212	0xbd75e957	-0.060036983
213	0x3d63184d	0.055443097
214	0xbd9e459d	-0.077281214
215	0xbdcc0619	-0.099621005
216	0x3d572957	0.05252966
217	0xbcd83f4b	-0.026397368
218	0x3dcd256d	0.10016904
219	0x3d97af36	0.07406466
220	0xbd259522	-0.040425427
221	0xbb939b12	-0.00450457
222	0xbd2728af	-0.040810283
223	0x3de4178b	0.11137303
224	0xbd50d9cc	-0.050988957
225	0xbd9cec7c	-0.07662293
226	0x3d91805e	0.07104562
227	0xbd347dc6	-0.04406526
228	0xbd9eaca1	-0.0774777
229	0x3b20c328	0.0024530385
230	0xbd62a379	-0.05533168
231	0x3debf140	0.11520624
232	0xbd69e405	-0.057102222
233	0xbbfb0a9e	-0.007661178
234	0xbbebbc05	-0.0071940445
235	0x3d94f86d	0.07273946
236	0xbd8415f4	-0.064495
237	0xbdaf039d	-0.08545611
238	0xbd574cb1	-0.052563373
239	0x3df6d69a	0.12052651
240	0xbd85facc	-0.06541976
241	0xbd3bc9a2	-0.04584659
242	0x3cc264ad	0.023729647
243	0xb9c5806e	-0.00037670456
244	0xbd586c04	-0.052837387
245	0xbdbf9e0b	-0.09356316
246	0xbd4b45ff	-0.0496273
247	0x3d442841	0.04788995
248	0x3d87e3e2	0.06635262
249	0x3dacec1f	0.08443474
250	0xbd93dc4c	-0.07219753
251	0x3dcfa976	0.10139744
252	0xbd4dfecb	-0.050291818
253	0x3db21341	0.08695079
254	0x3da9b181	0.08285809
255	0x3e0452e9	0.12922253

out_mlp2.weight f4 [1, 256]
0	0x3e412bec	0.18864411
1	0xbe804e73	-0.25059852
2	0x3d54bfa0	0.05194056
3	0xbec68e92	-0.38780648
4	0xbd3b88c1	-0.045784716
5	0x3c844439	0.016145812
6	0xbcac74df	-0.021051822
7	0x3cd601fb	0.026123991
8	0xbbcb3f38	-0.0062026046
9	0x3b1664ff	0.0022948382
10	0xbdb40684	-0.08790305
11	0x3f011a8d	0.5043114
12	0x3e4610e3	0.1934238
13	0xbcaa8bbe	-0.020818587
14	0x3c9c8450	0.01910606
15	0x3b855e67	0.0040700915
16	0xbd191524	-0.037373677
17	0x3ca8d549	0.020609515
18	0x3dffbcbe	0.124871716
19	0xbdc5f9b9	-0.096667714
20	0xbdd73237	-0.105076246
21	0xbd063cd3	-0.03277285
22	0x3cc2527b	0.02372097
23	0x3cda682d	0.026661003
24	0xbd9708de	-0.07374738
25	0xbd3159da	-0.04329858
26	0x3c2418b2	0.010015653
27	0xbd85d98b	-0.06535634
28	0xbba9b724	-0.0051793028
29	0x3c078717	0.008271954
30	0x3e9c2701	0.30498508
31	0xbd9b81b1	-0.07593096
32	0xbc4234ec	-0.011853438
33	0x3c8fb6a2	0.01754314
34	0xbc00f149	-0.007870027
35	0x3ce6f6b9	0.028193818
36	0xbda99013	-0.08279433
37	0x3ae0678b	0.0017120702
38	0xbbec661b	-0.0072143204
39	0x3dca20ed	0.09869561
40	0xbcc1b173	-0.023644185
41	0x3cc382f9	0.023866164
42	0x3eb180d7	0.3466861
43	0xbdd5af39	-0.10433812
44	0x3e72a736	0.23696598
45	0x3c057562	0.008145662
46	0x3c17d878	0.009267919
47	0xbcb4eba7	-0.022085024
48	0x3ea245de	0.3169393
49	0xbe698b8d	-0.2280714
50	0xbcc2d9bf	-0.02378547
51	0xbbeaddc7	-0.007167551
52	0x3ccff457	0.025385065
53	0xbc50dc58	-0.012747847
54	0xbc014991	-0.007891075
55	0xbbea9573	-0.007158929
56	0x3f3487b7	0.70519584
57	0xbc107c36	-0.008818677
58	0xbce0afa0	-0.027427495
59	0xbd49747f	-0.049183365
60	0xbd279185	-0.040910263
61	0x3d1dbf3d	0.038512457
62	0x3d1be08d	0.038055945
63	0xbdbdcd46	-0.092676684
64	0xbe499da7	-0.19689046
65	0xbc6d35bf	-0.014478146
66	0xbdc1e738	-0.094679296
67	0x3d3da8b4	0.046303466
68	0x3c49bb3f	0.012312709
69	0xbe809b15	-0.25118318
70	0x3e453b3e	0.1926088
71	0xbc4c66cc	-0.012475681
72	0x3c55f81c	0.013059642
73	0xbc4ddf2c	-0.012565415
74	0x3d381dfc	0.04495047
75	0x3b1a1aa2	0.002351441
76	0xbd9a5413	-0.07535567
77	0x3ba3df4e	0.005000985
78	0x3b8752d8	0.004129749
79	0xbb0263e8	-0.0019895975
80	0x3c88ae00	0.016684532
81	0xbd69fc25	-0.05712523
82	0xbd341f37	-0.04397508
83	0xbdcefe22	-0.10107066
84	0xbcde4bf2	-0.027135823
85	0x3b4549e8	0.0030103866
86	0x3eeab058	0.45837665
87	0xbc8ae9b3	-0.01695714
88	0xbe110d4b	-0.14165227
89	0xbd9023cb	-0.07038077
90	0x3c70837a	0.014679784
91	0xbc3a86b7	-0.011384658
92	0xbc713702	-0.014722588
93	0x3dfc1a0d	0.12309656
94	0xbc4069a4	-0.011743937
95	0xbd21170b	-0.039328616
96	0x3c5dcba6	0.013537323
97	0xbdce5f97	-0.10076826
98	0xbd010f57	-0.03150877
99	0xbe9f1210	-0.31068468
100	0xbd02d8c9	-0.031945024
101	0xbd96c2ba	-0.0736136
102	0xb91faeae	-0.00015228495
103	0xbce76599	-0.028246688
104	0xbc9d94a8	-0.019235924
105	0xbd82870e	-0.06373416
106	0x3d2ed440	0.042682886
107	0xbcbfafdf	-0.023399292
108	0xbe8622c8	-0.2619841
109	0xbb6f565c	-0.003651998
110	0xbd4132b1	-0.047167484
111	0x3c3c7547	0.0115025705
112	0xbec137cb	-0.3773788
113	0xb9f9ae00	-0.0004762262
114	0xbc56ff25	-0.013122355
115	0xbcc6117d	-0.024178261
116	0x3c2bd141	0.010486902
117	0x3cc781a4	0.02435381
118	0x3e28df4a	0.16491428
119	0x3ce3e960	0.027821243
120	0x3c7b53bf	0.015339791
121	0x3c291b55	0.010321458
122	0xbe070438	-0.13185203
123	0x3e44ceff	0.19219588
124	0x3ce9f654	0.028559841
125	0xbdbeb0c6	-0.093110606
126	0x3a8d7c6f	0.001079453
127	0xbf21ca4f	-0.63199323
128	0x3f5c4cc2	0.86054623
129	0xbdc7ac7e	-0.09749697
130	0x3f41ece2	0.7575208
131	0x3cef95d3	0.029246246
132	0xbdbf5d5e	-0.0934398
133	0xbd61a14c	-0.055085465
134	0xbd3da210	-0.046297133
135	0xbded247a	-0.11579223
136	0x3d45f18d	0.048326064
137	0xbc2e54d3	-0.010640341
138	0x3c10e611	0.008843915
139	0x3f469a99	0.7757965
140	0x3cf4a01f	0.029861508
141	0x3a608043	0.00085640344
142	0x3ccb3293	0.02480439
143	0xbc9699bb	-0.018383851
144	0xbddbca89	-0.1073199
145	0xbdad406c	-0.08459553
146	0xbc5c803e	-0.01345831
147	0x3d27aa06	0.04093363
148	0x3c9ebdda	0.019377638
149	0x3c1f4325	0.009720598
150	0xbe8c68cf	-0.27423713
151	0xbc96ac29	-0.01839264
152	0xbd8ea2e2	-0.06964661
153	0xbcbeb171	-0.02327797
154	0x3cb9394b	0.022610327
155	0xbb0b4f63	-0.0021257035
156	0x3a095549	0.0005238844
157	0xbd5bda7f	-0.05367517
158	0xbce463f8	-0.0278797
159	0xbc68726a	-0.014187435
160	0x3d13c758	0.03607878
161	0xbd699661	-0.057028178
162	0xbd997a56	-0.07494037
163	0xbcc65973	-0.024212575
164	0x3d41eb54	0.047343567
165	0x3b084817	0.0020794922
166	0xbd0d3b99	-0.034480665
167	0x3ce9d688	0.02854468
168	0x3bf80d7a	0.007569966
169	0xbcf84bb8	-0.030309543
170	0x3f855a04	1.0418096
171	0xbd6350cb	-0.055496972
172	0x3cc15ca2	0.023603741
173	0x3f32d20e	0.6985177
174	0xbcb48a2c	-0.022038542
175	0x3c63ec98	0.013911389
176	0xbd0ac418	-0.033878416
177	0xbd3239a0	-0.043511987
178	0xbb642f0f	-0.0034818088
179	0xbcbd3247	-0.023095263
180	0xbdb1ecce	-0.08687745
181	0xbdb4c642	-0.08826877
182	0xbed07bb0	-0.40719366
183	0xbf0eca3c	-0.55777335
184	0xbd8338a3	-0.06407287
185	0xbd8bddff	-0.06829452
186	0xbd2e90f2	-0.0426187
187	0xbcc87771	-0.024471017
188	0xbe9511ef	-0.29115245
189	0xbd157460	-0.036487937
190	0x3b38da66	0.0028206347
191	0x3ca13e94	0.01968316
192	0x3d6f466a	0.05841676
193	0xbc6a5d8b	-0.014304529
194	0xbc95ec4a	-0.018301148
195	0xbbbe6f39	-0.0058115986
196	0xbdc68c57	-0.096947365
197	0xbdc0a4a3	-0.09406402
198	0xbcc8e701	-0.024524214
199	0xbd5dcd04	-0.054150596
200	0xbbaf4efc	-0.005349992
201	0xbaf9c3b9	-0.0019055522
202	0xbb800a87	-0.003907505
203	0x3a83e9ca	0.0010064181
204	0xbcbc24b0	-0.022966713
205	0xbd5fc089	-0.054626975
206	0xbc1f2a58	-0.009714685
207	0x3c387a57	0.011259637
208	0xbc3dbaa8	-0.011580147
209	0xbd5a528c	-0.05330138
210	0x3c74d583	0.014943483
211	0xbdc74a0b	-0.097309195
212	0xbce0e58b	-0.027453205
213	0xbd9f45c4	-0.077769786
214	0xbcbaa601	-0.022784235
215	0x3f5fe8c0	0.87464523
216	0xbd6f7d9e	-0.058469407
217	0x3c7a32f2	0.015270935
218	0xbd9fa14a	-0.07794435
219	0xbc014dd1	-0.007892088
220	0x3ec80e7e	0.39073557
221	0x3f1a8a70	0.6036749
222	0x3b6e318d	0.0036345453
223	0xbdc87fab	-0.09789976
224	0x3c395486	0.011311656
225	0x3d99864f	0.074963205
226	0xbd9497c6	-0.07255511
227	0xbd062aa1	-0.032755498
228	0x3dcbef51	0.09957755
229	0xbeb88e93	-0.36046275
230	0x3d5cafa1	0.05387843
231	0xbd9167c5	-0.070998706
232	0x3e8aed33	0.27134094
233	0xbc87d69b	-0.016581824
234	0x3cb3528c	0.021889947
235	0xbd9b170b	-0.075727545
236	0xbc9bc823	-0.019016331
237	0x3caf813d	0.02142393
238	0xbd4e69e9	-0.050393973
239	0xbcf6bcb2	-0.030119274
240	0x3e823eb9	0.2543848
241	0xbc31ebfe	-0.010859488
242	0x3c28ec63	0.010310265
243	0x3eace43e	0.33767885
244	0x3d154bd1	0.036449257
245	0xbabac3f1	-0.0014249069
246	0xbc23b0c5	-0.009990876
247	0xbd765b0c	-0.060145423
248	0xbc6ebaa7	-0.014570869
249	0xbd1bd628	-0.038046032
250	0x3c0b239d	0.008492378
251	0xbd3e5879	-0.046471093
252	0x3e74ebd8	0.23918092
253	0xbc9e0b79	-0.01929258
254	0xbda0dbac	-0.07854399
255	0xbdef96f5	-0.11698715
